4. Deep learning part/Deep learning/final_model_state.pth (torch, 220412 bytes, 18 tensors)

lstm.lstm.weight_ih_l0 f4 [256, 1]
000000 f8 2d 3a 3d 1e cf 6e bd bb eb d4 bd ab 79 b7 3d
       0.045453995 -0.05830299 -0.103965245 0.08958753
000010 d4 7a a5 bb a8 de 71 bd 70 e4 07 3d 64 ce 39 3c
       -0.0050500426 -0.059050232 0.03317684 0.011340711
000020 a8 d3 65 3d da 51 88 bd 9f f0 ac 3d 29 ff 7c bc
       0.056110054 -0.06656237 0.08444332 -0.015441694
000030 d1 79 ff 3d 11 d9 00 3d bb 4b c0 3d 61 19 0c bd
       0.124744065 0.03145701 0.093894444 -0.03420389
000040 7a 75 4c bd 4f e2 0c bd 29 15 8a bd 8c 42 24 3d
       -0.049916722 -0.034395512 -0.06742317 0.040102527
000050 31 7d f1 ba 88 e5 c6 3d 9d 89 31 3d d9 19 07 3e
       -0.0018424151 0.09711748 0.04334413 0.13193454
000060 a6 ae 83 bd 2d 1a 84 bd 2d 19 92 bc ca e8 1a bd
       -0.06429796 -0.06450305 -0.01783427 -0.03781966
000070 26 cf ee 3d a9 19 6b 3d 97 9c 36 bb 11 57 d3 3d
       0.11660604 0.05739752 -0.002786433 0.10319341
000080 b3 bf 25 3d 6a 30 bc 3b df c2 9f b9 fc 4a 6e bb
       0.04046602 0.005743076 -0.00030472034 -0.0036360612
000090 7a 2d a1 bd a1 8c bf bd 87 40 b6 3d ec da cb 3d
       -0.07870002 -0.09352995 0.08899026 0.099538654
0000a0 7e 87 cd 3d 22 b3 23 b7 90 ef 35 3d e9 28 fe 3d
       0.10035609 -9.757265e-06 0.044417918 0.12410147
0000b0 96 ba 61 bc 3e c0 67 bd ad cd c7 bd 2e 44 bc bd
       -0.013777396 -0.05657982 -0.097560264 -0.09192692
0000c0 50 be 41 3d 14 78 cb 3d d1 85 d1 bd c5 0b 09 3e
       0.047300637 0.099350125 -0.102306016 0.13383396
0000d0 49 83 1f bd d1 ec fb 3d 46 70 8d 3c f8 bd ab bd
       -0.038943563 0.123010285 0.01726545 -0.08385843
0000e0 8d c3 a5 3d a3 f3 d1 3d bc e0 89 bc 82 4c 98 3d
       0.08093939 0.10251548 -0.016830795 0.07436468
0000f0 9a 5e ed bd bb 2c ea 3d 34 60 f9 3b 87 94 df 3d
       -0.115903094 0.11434313 0.0076103453 0.10917001
000100 e9 7e ee bd c7 8d d7 bd 59 88 de 3d 7a 2c 1b bd
       -0.116453 -0.10525089 0.1086585 -0.037884213
000110 74 39 ff 3d 7e ad 8f 3d 76 d7 b6 3d 58 47 f2 bc
       0.1246213 0.07015513 0.08927815 -0.029575035
000120 4e 37 74 bd f0 83 a8 bd d0 12 aa 3d a8 ed af 3d
       -0.059623055 -0.0822829 0.083043694 0.08590251
000130 a7 1b 24 3c 12 e9 d8 ba a7 af a4 3c 39 92 9d 3c
       0.010016358 -0.0016548953 0.020103289 0.019234763
000140 e9 88 a1 bd 7f 81 f1 3d c8 eb be 3d dc a8 d3 3d
       -0.07887442 0.117922775 0.093223155 0.10334942
000150 02 7e 83 3d c5 10 10 3e 85 0d 6d bd a3 b3 db 3d
       0.064205185 0.14068897 -0.05787422 0.10727622
000160 a8 e4 07 3d ff 8b 9e 3d a2 71 14 3e 5d 04 ed bc
       0.033177048 0.07741546 0.14496472 -0.028932745
000170 7b d9 03 3e b6 65 6d 3d ad 57 14 3c f6 68 95 3d
       0.12875931 0.057958327 0.009054107 0.0729541
000180 e7 57 61 bd 50 8f 75 bd 2a 46 36 3c 10 f5 a7 3d
       -0.05501547 -0.059951127 0.011125127 0.08201039
000190 c7 0c 8f bd 50 66 72 bd de 51 62 3d da e9 d0 bc
       -0.06984859 -0.059179604 0.055253856 -0.025502134
0001a0 ac af af bd e6 81 e1 3c b4 6a c1 3d a3 ae b4 bd
       -0.085784286 0.02752776 0.0944418 -0.08822372
0001b0 5d 60 d0 3c 19 70 da bb 4b 7c 85 3d a5 be 16 bd
       0.025436575 -0.006666195 0.065178476 -0.036802907
0001c0 52 f1 35 bc 48 bb 63 3d 8f ed 3b bd 1a 40 54 3d
       -0.0111048985 0.055598527 -0.04588085 0.051818945
0001d0 8f 90 47 3c 72 f0 b0 3d 74 38 e1 3d fc a1 44 bd
       0.012180462 0.08639611 0.10997096 -0.048006043
0001e0 d7 11 da 3d 28 bc 96 bd 9d 78 b2 3c e5 53 c3 bd
       0.10647934 -0.07360107 0.021786029 -0.09537486
0001f0 33 8b 49 bd 82 3f c1 3d a5 7d a6 bd d8 0d 85 bc
       -0.049205016 0.09435941 -0.081294335 -0.016241953
000200 4a 27 5f 3a 7a c5 de 3d fa dc a5 3c 64 af 40 3d
       0.00085126294 0.108775094 0.020246971 0.047042266
000210 a1 1e 68 bd 12 10 58 3c 8a 0f bd bd b8 62 3d 3d
       -0.056669835 0.013187425 -0.092314795 0.046236724
000220 e2 07 7c bc 3b 69 ae 3d 25 eb 0b be be c8 08 bd
       -0.015382739 0.08516165 -0.1366392 -0.033394568
000230 9e 1f 8e bb 37 69 08 bc f3 b9 d4 3d 8d a6 27 bd
       -0.004337265 -0.008325866 0.103870295 -0.04093032
000240 00 25 a3 3d 50 1a 59 bd 1b cb 95 3d 39 b1 b3 3d
       0.079660416 -0.05300361 0.0731413 0.08774037
000250 5d de e6 39 52 97 85 bd 39 a0 08 be 45 8d dc 3d
       0.00044034692 -0.06523003 -0.1334237 0.107691325
000260 c3 4b 2b bd 37 0a 97 3d 7f 83 04 3e ab a3 b5 bd
       -0.0418203 0.07374995 0.12940787 -0.08869108
000270 3d 63 01 bd c6 cc bc 3c 82 c0 bf bd cf 54 c9 bd
       -0.03158878 0.023046862 -0.0936289 -0.09830629
000280 9d 5a 8b 3b 8f 01 0c be 2d 27 9c bb 6f 75 90 bc
       0.0042527453 -0.1367247 -0.0047654123 -0.017634122
000290 44 f6 b4 3c a8 fc ba bc 63 9c 9e 3c be d6 f6 bd
       0.022090085 -0.022825554 0.01936168 -0.120526776
0002a0 31 0c 19 3d 4e 9b 68 3d e7 69 a4 3d cf 84 00 3e
       0.037365142 0.056788735 0.08028012 0.12550662
0002b0 4a 97 a0 3d b9 1b 99 bc f2 4e a4 bd fc aa ad 3d
       0.07841356 -0.018689977 -0.0802287 0.08479878
0002c0 fb 60 e9 3d 55 e1 03 be ce 06 d5 bd 1d fe c4 3d
       0.11395451 -0.12878926 -0.104016885 0.09618781
0002d0 0a 3c f5 bd e3 fe 9c 3d b2 22 ed 3b ff da e6 bc
       -0.11974342 0.07665803 0.007236802 -0.028180597
0002e0 e3 4e 8a bd b6 bb 9c 3d 99 95 c9 bb 81 4d 01 3e
       -0.06753328 0.076529905 -0.0061518666 0.12627222
0002f0 e5 e2 f4 bd 1a 93 a8 3d 5b b9 aa bd e3 c7 85 bd
       -0.11957339 0.082311824 -0.08336135 -0.06532266
000300 89 22 9c 3b 14 c9 38 bd c8 75 93 bd 68 45 98 3c
       0.004764859 -0.045113638 -0.07200199 0.018587783
000310 c1 dd 2d bc 04 d5 5d 3d 8b 7a 9f bd 61 8d a1 bb
       -0.010611952 0.054158226 -0.07787045 -0.0049301838
000320 95 05 b0 bd f6 2c 36 bd a2 ef 51 bd 58 f1 53 3c
       -0.08594815 -0.04447647 -0.051253922 0.012935959
000330 26 6a 27 bd df d0 a2 3d c4 ef eb 3c 6e bd a0 bd
       -0.040872715 0.07949995 0.028800853 -0.07848631
000340 45 32 04 3e 6a 24 12 bd b8 81 97 3c 05 9b 8d ba
       0.12909801 -0.03567926 0.018494472 -0.0010803646
000350 d0 ba ad 3d a5 24 85 3d 4e 8f 82 bd ec 22 af 3d
       0.08482897 0.0650113 -0.063749894 0.08551583
000360 6c 38 c2 bd e6 92 25 bd 50 c0 0c bd b3 95 90 bd
       -0.09483418 -0.040423296 -0.03436309 -0.07059803
000370 1c dd cc bd dd 43 03 bc 39 a3 13 3e 3b ca b8 3d
       -0.10003111 -0.008011785 0.14417733 0.090229474
000380 21 93 40 bd 51 e3 42 3c 96 98 75 bc 10 c5 e8 3c
       -0.047015313 0.011895017 -0.014989993 0.02841428
000390 d4 90 02 3e 8c 7c b0 bd 6b b0 10 bd 89 fd b2 bd
       0.1275056 -0.086175054 -0.035324495 -0.08739764
0003a0 b1 cd b2 3d 37 44 c6 3d c6 ed 8e bc 96 47 bb bd
       0.08730639 0.0968098 -0.017447364 -0.09144513
0003b0 d5 61 c5 3c ea aa b1 bd a7 bb 9f bd bf 59 36 bd
       0.024094502 -0.086751774 -0.07799464 -0.044519182
0003c0 5e 24 6e bd 03 d7 9b 3d dc 2b dc bc f9 49 09 3e
       -0.05814015 0.076093696 -0.026876383 0.13407125
0003d0 99 35 15 3e ea 98 06 3e c0 31 63 3c 12 e4 00 3e
       0.14571227 0.1314427 0.013866842 0.12587002
0003e0 3d 88 8a bd 26 0e a4 3d 1b 4c e2 bd 89 a9 9c bd
       -0.06764267 0.08010511 -0.11049672 -0.07649524
0003f0 69 32 f9 3d e1 9b 52 bc e1 4d 05 3e bc 47 00 3e
       0.12167818 -0.012854547 0.1301799 0.12527364

lstm.lstm.weight_hh_l0 f4 [256, 64]
000000 a8 c6 d0 bc 72 93 f5 3c 37 02 1e 3c 05 e2 b0 3d
       -0.025485352 0.029977534 0.009644083 0.0863686
000010 37 7c ff bc 15 1f 83 bd ac c4 9b bc 02 99 a3 bc
       -0.03118716 -0.06402413 -0.019014679 -0.01997042
000020 db a5 d3 3c 74 fa af bd ab 1a f7 3c 14 5a 07 3e
       0.025835922 -0.08592692 0.030164083 0.13217956
000030 86 2a 9c 3d 32 d6 d1 ba 0b 50 e5 3c 62 bc da 3d
       0.07625298 -0.001600927 0.027992269 0.106804624
000040 b8 d6 04 be 63 07 cc bd 2c 87 62 bd 55 cd ef 3d
       -0.12972534 -0.099623464 -0.05530469 0.11709086
000050 bd 83 8f 3d ef fa 1a 3d 93 51 d3 bc d5 eb 34 3d
       0.07007549 0.037836965 -0.025795734 0.04417022
000060 10 a3 26 bc c6 4c a4 3d 54 c8 46 bd 57 ec 43 bd
       -0.010170713 0.08022456 -0.04853089 -0.047832813
000070 91 d7 d1 3d 29 b4 08 be be cf 5f 3d 03 bc 27 3d
       0.10246194 -0.13349976 0.054641478 0.040950786
000080 7e d6 93 3c e0 81 1e 3c 07 b3 42 3d b4 1f 8a 3d
       0.018046614 0.009674519 0.047534015 0.06744328
000090 86 39 33 bd 6d ff 2c 3d b6 2e e2 bd 28 8f 34 bc
       -0.04375603 0.04223578 -0.11044066 -0.011020459
0000a0 5b a9 ae bd 7f ca 33 bd 0d b8 37 3c be 4b de 3d
       -0.08528396 -0.043894287 0.011213315 0.108542904
0000b0 4e f4 c5 3d 42 cf 4a bd 44 2d 86 bd 04 ff a8 bd
       0.09665738 -0.049514063 -0.065516025 -0.08251765
0000c0 00 4a 00 3d 95 5d 75 3d a0 24 fa bc 1d 8e 77 bd
       0.031320572 0.0599037 -0.030535042 -0.060438264
0000d0 b7 cc 2e 3d 1e da c9 bd 53 d3 8f bd 89 51 0f be
       0.0426757 -0.09856056 -0.07022729 -0.13995947
0000e0 1b 1f 0e 3e e5 af 30 3d a0 a8 4c 3d 6e a0 53 bd
       0.13879053 0.043136496 0.0499655 -0.05166667
0000f0 76 3e 50 bd 04 ff b4 bc 33 49 b4 bd d0 01 a7 bc
       -0.050840817 -0.022094257 -0.08803024 -0.020386606
000100 56 4d b0 bd 4b 8e 13 3e 02 63 b0 bd 3c 7d 85 3d
       -0.08608501 0.14409749 -0.08612634 0.06518027
000110 df b6 a1 3d 80 b0 4f bd dc b4 84 3d 42 53 03 3e
       0.07896208 -0.050705433 0.06479809 0.12824729
000120 ff cc fc bd 3e ab e2 3d bc ff 92 bd b3 98 17 3d
       -0.123437874 0.11067818 -0.07177684 0.03701086
000130 7e 50 be bd e0 d5 9b bd 8a f8 c4 3d d9 43 88 bd
       -0.092926964 -0.07609153 0.096177176 -0.06653566
000140 e4 29 e6 bb 47 5d 09 3e f8 19 68 3d c0 f7 17 3d
       -0.0070240367 0.13414489 0.05666539 0.037101507
000150 95 52 16 bd 1f c9 8a bd b8 9c f0 bd 6f 30 30 3c
       -0.03669985 -0.06776642 -0.11748642 0.010753735
000160 51 77 69 bc 2f 50 e3 bd e3 e0 0f 3e 27 fc 76 bd
       -0.014249639 -0.11099278 0.14050631 -0.060299065
000170 f2 8e e2 bc 97 05 a3 bd 56 36 83 3d 9e 8f 93 3d
       -0.027656052 -0.079600506 0.06406848 0.07205127
000180 6b 50 03 3e d3 5a 2e 3d 9f a9 d9 bd b9 8e d1 3d
       0.12823646 0.042567085 -0.10628056 0.102323
000190 56 9d 44 3d 85 64 d4 3d a7 57 e5 bd 20 56 01 be
       0.04800161 0.10370735 -0.11198359 -0.1263051
0001a0 e1 0f 53 bc 6b 2a 21 bd 69 bd 58 3d ce 3a 34 bd
       -0.012882204 -0.039347094 0.05291501 -0.044001393
0001b0 a2 3c 90 bd 86 2d a9 bc 5c b3 d1 bd cc d1 94 3d
       -0.07042815 -0.02065159 -0.10239288 0.07266578
0001c0 a6 5f f6 3d 76 80 88 bd 23 9e 4f 3c 4c 53 10 3e
       0.12029962 -0.06665127 0.01267198 0.14094275
0001d0 33 4c cc bd a9 03 f3 bd ad 38 76 3d 8a 79 82 bc
       -0.09975471 -0.118659325 0.060112644 -0.015927095
0001e0 1b 5e ef 3c a4 6a 96 bc 38 d1 53 3d 1e cd 40 bd
       0.029219678 -0.018361397 0.0517132 -0.047070615
0001f0 df fd a5 bd 39 a7 32 bd fc 4f f1 bd f1 dd a0 bd
       -0.08105063 -0.043616507 -0.11782834 -0.07854832
000200 9d fb d0 bc 86 1b 37 3d 04 11 01 3e 8c e5 41 bd
       -0.025510604 0.044703983 0.12604147 -0.047338054
000210 e6 7c f7 bd d2 ca f1 3b 06 24 73 bc 26 55 fd 3c
       -0.12084369 0.0073789144 -0.014840132 0.030924391
000220 db ec fe 3c ef a3 5e bd 27 5c a9 3d ee 79 fb b7
       0.0311188 -0.054355558 0.0826953 -2.997831e-05
000230 8f 66 13 bd 5b 13 97 3d a1 d3 42 37 7e b3 99 bc
       -0.03598648 0.07376739 1.1612575e-05 -0.018762346
000240 9b 7e eb bd e7 0c e3 3c 7a 10 6f 3d 4f 00 98 3d
       -0.114987575 0.027716113 0.058365323 0.07421934
000250 8f 9a 84 bc 54 b1 a3 bd 12 fa f1 bc d6 e0 f0 bd
       -0.01618698 -0.07992807 -0.029538188 -0.11761634
000260 84 89 6d bd 33 19 30 bd 9f ff 02 3e 57 d5 7e bd
       -0.057992473 -0.04299278 0.12792824 -0.062215175
000270 33 7a 9c bd 0a 6b cc 3d 04 f5 fd 3d c5 2c cb bd
       -0.07640495 0.099813536 0.12400249 -0.099206485
000280 c7 a9 c2 3d 8f a2 e4 bd 57 65 0d be d2 b5 e1 bc
       0.09505039 -0.11163818 -0.1380819 -0.027552519
000290 a0 26 f5 3c 18 ee 0b 3e 1c b5 c0 3d 84 ef 0a bd
       0.029925644 0.13665044 0.09409544 -0.033919826
0002a0 1c 85 00 3e 2c fd 07 be 84 8a 74 bc 89 80 5e 3d
       0.12550777 -0.13280171 -0.014925603 0.0543218
0002b0 a7 51 45 bc f8 b1 8c bd b9 a2 e2 bd de 09 cc 3c
       -0.012043393 -0.06869882 -0.11066193 0.024907049
0002c0 56 47 db 3d 20 fa 01 be 53 a7 40 bc f8 d7 c0 3d
       0.107069656 -0.12693071 -0.011758643 0.09416193
0002d0 1b 2c 74 3d 97 03 12 be 38 e0 f8 bd b3 85 76 bd
       0.059612375 -0.14259182 -0.12152141 -0.0601861
0002e0 14 ea 16 bd 28 96 b2 3c 10 e4 6f bd 6c 40 f6 3c
       -0.036844328 0.021800116 -0.058567107 0.030060016
0002f0 db c1 32 3c 1c 39 41 bd 63 b6 30 3d 2e f4 4e 3c
       0.010910477 -0.047173604 0.043142688 0.012631459
000300 56 29 84 bd b2 f6 7d 3d 04 9c 25 3d 65 98 fb 3d
       -0.06453197 0.062002845 0.04043199 0.12284926
000310 20 44 db bc 60 d9 99 3d e1 60 85 bd 52 6a 79 bd
       -0.026765883 0.07512164 -0.06512619 -0.06089241
000320 9e af e1 bc 6c dd 46 ba bb 2e e4 bd 39 bf 40 bd
       -0.027549561 -0.0007586095 -0.11141726 -0.047057364
000330 30 0e 35 bd d3 8b 76 3d 69 33 26 3d 59 fb 9a bd
       -0.044202983 0.06019194 0.040576372 -0.07567472
000340 9a c5 c0 3a 06 d2 b9 bd 20 07 0b bb f4 96 09 3e
       0.0014707327 -0.09073262 -0.0021213964 0.1343649
000350 31 85 07 3d b5 e3 08 be 17 28 e0 3c 6a 81 f2 bb
       0.033086006 -0.13368113 0.027362866 -0.0074006813
000360 c4 eb f6 3d a0 3c 2e bc 01 36 3e bd 57 4e 5c bc
       0.120566875 -0.010634571 -0.04643822 -0.013446412
000370 06 ec 86 bc 26 1d 0a be 00 e9 48 3d 00 14 4e bd
       -0.016469967 -0.13487682 0.04905033 -0.050312042
000380 08 15 d5 3d 5c cf 59 3d 3c d9 99 bc 2f de 0b bd
       0.10404402 0.05317627 -0.018780343 -0.034147438
000390 9e f8 00 3e 1e 0e 06 bd d4 5e f1 bd 58 45 4d bd
       0.1259484 -0.032728307 -0.11785665 -0.05011496
0003a0 e0 5e 09 bd 82 b6 96 3c f3 bb 9e 3d d3 f5 8e 3d
       -0.033537745 0.018397573 0.07750692 0.06980481
0003b0 13 a2 17 3c 64 5c da 3d f0 96 83 3d 96 d3 01 be
       0.00925495 0.10662153 0.064252734 -0.1267837
0003c0 87 a4 98 bd 12 fb 9f 3d 8f 19 8e 3d d1 e8 c9 bd
       -0.07453256 0.0781156 0.06938469 -0.09858859
0003d0 27 41 89 3d e2 a8 fc bd 42 22 d4 3d ef a2 81 3a
       0.0670188 -0.12336899 0.10358097 0.0009890477
0003e0 b0 86 7a bd fe cd 49 3c 6d ad 04 be 10 63 c3 3d
       -0.061163604 0.012317179 -0.12956782 0.09540379
0003f0 a1 95 b5 bd 72 34 03 be bc a9 4b bd 8b 3f df bd
       -0.0886643 -0.12812975 -0.04972242 -0.10900792

lstm.lstm.bias_ih_l0 f4 [256]
000000 42 ba 04 3e f8 ac 0d 3e f9 af e2 bc c5 a7 07 3e
       0.12961677 0.13835514 -0.0276718 0.13247593
000010 7a 55 81 3d b8 22 38 3d 59 09 82 3b 59 c8 1b 3d
       0.063151315 0.044954985 0.0039683995 0.038032863
000020 0d df 71 bc d0 34 fd bc 3f 6e b8 3d 4c cb c4 3d
       -0.014762652 -0.030908972 0.09005403 0.09609088
000030 61 a2 04 3e 85 cd cc bc 8b 58 35 3d c4 75 da bd
       0.12952568 -0.025000343 0.044273894 -0.10666993
000040 82 ac 40 bd 13 5c bc 3c bd f0 06 3e b0 0b 08 3e
       -0.047039516 0.022993123 0.13177772 0.13285708
000050 e4 7d 3b 3b 83 1e 8d bd d1 d9 fc 3d c0 f7 67 3d
       0.0028608972 -0.06890585 0.12346233 0.056632757
000060 21 18 eb 3b 96 aa ee 3d 6a 3a 3f bd d9 a0 b0 bd
       0.0071745072 0.116536304 -0.046686567 -0.08624429
000070 45 d9 7b bd b7 2f 35 3d da 41 b9 3d 9c ca 1c 3d
       -0.0614865 0.044234958 0.09045763 0.03827916
000080 34 bb d4 bd 8f 78 90 3c 87 f4 99 3c 0e 06 7d bd
       -0.10387269 0.017635612 0.018793358 -0.061773352
000090 80 2d bb bd 03 cc 38 3d 34 a4 16 bd 54 a4 00 bc
       -0.09139538 0.045116436 -0.03677769 -0.007851679
0000a0 c4 bf b6 bd f3 20 02 bd 5a ff e1 3d 97 9d 8c bd
       -0.08923295 -0.031769704 0.110350326 -0.068659954
0000b0 c3 f4 bc 3d 90 55 ee bc ce 2d 23 3c 4e fa 8e bd
       0.09226372 -0.029093534 0.009959651 -0.069813356
0000c0 4e a1 fa bc 42 d1 a8 3b d1 92 e4 3d ac e7 1a 3d
       -0.030594494 0.0051518986 0.111608155 0.037818596
0000d0 8b eb 8c bc 86 7c bc bc 3b 77 4d 3d 3b 02 08 bb
       -0.01720216 -0.023008596 0.050162535 -0.0020753283
0000e0 7f 10 f3 3a 3a 25 0f 3e 16 9f 83 bd d7 70 99 bd
       0.0018544345 0.13979045 -0.064268276 -0.074922256
0000f0 a9 2c dd 3d dc f2 ce 3d ab 68 0f bd 89 37 00 3d
       0.10799534 0.101049155 -0.03501193 0.031302962
000100 18 ea 5d 3d 5b 68 f3 3c ba 48 9a 3d 3e 3e e9 3d
       0.054178327 0.029712847 0.07533403 0.11388825
000110 7f 0e 02 3e 05 a7 2f 3c a7 99 25 3b 33 30 ba 3d
       0.12700842 0.010720973 0.0025268586 0.090912245
000120 86 5c 81 bd 9c 10 5e bd ab c8 fa 3d 51 28 02 3e
       -0.063164756 -0.05421506 0.12245306 0.12710692
000130 3f 3b 5f 3c 76 f5 86 bd 3a 16 d6 ba 84 e6 cb bd
       0.013624965 -0.06589787 -0.0016333528 -0.09956077
000140 7f fe d8 3d 9d e9 a0 39 69 91 90 bc 8a 54 7b 3d
       0.10595416 0.00030691634 -0.017647462 0.06135992
000150 0a 45 ca 3d f9 96 80 bd 80 39 46 3c d8 33 74 bd
       0.098764494 -0.06278796 0.01209867 -0.059619755
000160 dd 27 d8 bd 14 05 31 3d 01 4d 36 bd 32 a1 94 3d
       -0.10554478 0.043217734 -0.04450703 0.07257308
000170 e7 36 ba 3d 64 f2 80 3d 10 a4 61 bc ad 99 02 3d
       0.09092503 0.06296232 -0.013772026 0.031884838
000180 be e1 06 3e 56 22 31 bb 91 b7 68 3d c0 4d 9c 3d
       0.13172051 -0.0027028522 0.056815688 0.07632017
000190 47 ca 29 3c 83 35 e4 3d 09 13 a8 bd fe 97 bd bc
       0.010363168 0.11143019 -0.08206756 -0.023143765
0001a0 4b 54 ea 3d 39 f5 d3 bd 2b 8a 9c bd f1 5d 88 3d
       0.11441859 -0.10349507 -0.07643541 0.06658543
0001b0 77 6c ad bc da 0a 0a 3e d1 5c 4a 3b de 10 70 3d
       -0.021169884 0.13480702 0.0030878077 0.058609836
0001c0 d4 7d d0 bd 83 73 23 bd 88 b4 8f 3b 7a 9f eb 3d
       -0.1018025 -0.039905082 0.0043855347 0.11505027
0001d0 ba 7e 89 bd 27 2d 6d bd fb 51 bc 3d 21 bd ff 3d
       -0.06713624 -0.05790439 0.09195324 0.12487245
0001e0 4f c0 cf bd 12 c4 c4 3d 5a 8d 72 bc c5 c5 79 3d
       -0.10144102 0.0960771 -0.014804209 0.060979623
0001f0 16 71 f1 bd c4 51 1f 3d 19 ab a6 bd 4f ae 7f bd
       -0.117891476 0.038896337 -0.08138103 -0.062422093
000200 ea 26 c7 3d d1 ab a4 3d b9 33 ce bb 7b 78 d9 bc
       0.09724219 0.08040584 -0.006292787 -0.026546707
000210 80 cf 50 bc a0 65 fa bd 6e 70 84 3d 06 68 41 3d
       -0.012744784 -0.12226415 0.06466757 0.047218345
000220 48 7a bf 3d bd ac 0d 3d 06 dc 6e 3d 46 a3 4a bc
       0.09349495 0.034588564 0.0583153 -0.012368029
000230 79 fd 43 3d 56 82 98 bd c4 34 f5 3c 84 d1 3d bc
       0.047849152 -0.074467346 0.029932387 -0.011585597
000240 e2 6f d3 bd 25 3d 0e 3c 73 a1 c6 bc 13 38 02 3e
       -0.10324074 0.00868157 -0.024246907 0.12716703
000250 12 c0 83 3d 09 28 b4 bc 36 03 58 bd 7a 54 a3 bd
       0.06433119 -0.021991747 -0.052737437 -0.07975097
000260 c2 34 ac 3d c4 03 bd bd 08 ee 35 bd 0d ba eb 3d
       0.084085 -0.09229234 -0.044416457 0.11510096
000270 54 66 d2 bc 57 3f d6 bd 7c a3 c4 3d 82 24 69 bd
       -0.02568356 -0.104613 0.09601495 -0.056919582
000280 9a f8 d2 3d ce 7a a8 bc 14 61 8d bd ac 4f 7c 3d
       0.10301323 -0.02056637 -0.06903282 0.06159942
000290 f8 26 54 3d e2 a4 83 3d b6 85 43 bd b0 d0 06 be
       0.051794976 0.06427933 -0.04773494 -0.13165545
0002a0 30 d3 37 3c 57 71 c4 bd 42 df 85 3d 98 cf 47 3d
       0.011219785 -0.0959193 0.06536724 0.04878196
0002b0 c8 db 65 bd 90 08 2c 3c 78 a1 b7 bd 50 2c 0f 3d
       -0.056117803 0.010500088 -0.089663446 0.03495437
0002c0 d1 ab 67 3d c0 c7 0f be 82 66 05 be 5e 83 04 3e
       0.05656034 -0.14041042 -0.13027385 0.12940738
0002d0 e8 fd 94 3d c4 4d 26 bd b4 d4 04 be 0e cf e4 bc
       0.07274991 -0.040601507 -0.12971765 -0.027930763
0002e0 08 d6 9b 3d cf c1 28 3d 47 98 f5 bc 77 02 14 bd
       0.076091826 0.041200455 -0.029979838 -0.036135163
0002f0 11 4a b6 3d 16 45 05 be 26 e2 cc bc 07 4d a9 bc
       0.08900846 -0.13014635 -0.02501018 -0.020666612
000300 45 a0 02 3d 29 8c 5b 3d a5 e3 a9 bc 73 88 0b 3e
       0.031891126 0.053600464 -0.020738432 0.1362627
000310 51 ac cf 3d 1a 13 ec 3d 5d d4 c1 3d 05 d5 84 bc
       0.101402886 0.11527081 0.09464333 -0.016214857
000320 f7 67 0e bc 3a 03 56 bd dd ac 3e bd 18 96 a9 3d
       -0.008691779 -0.05224917 -0.046551574 0.08280581
000330 48 9b 8d bd 49 d2 00 3e 65 58 90 3d 5c 22 5f 3d
       -0.06914383 0.12580217 0.0704811 0.054476127
000340 1b 93 99 bd 02 8c d0 bd e9 8e 6f bc 30 0b 0c bc
       -0.07498761 -0.10182954 -0.014621475 -0.008547589
000350 e3 70 d9 3a 59 df 87 bd 22 3e 89 3d b4 62 86 bc
       0.0016589429 -0.06634397 0.06701304 -0.016404487
000360 f9 71 e1 3d e2 b9 11 bb a8 a3 90 bd 79 7d 10 3c
       0.11008067 -0.002223604 -0.07062465 0.0088189775
000370 e0 f1 ed 3d 53 a2 17 bc e0 a3 be 3d 8c fd cd bd
       0.116183996 -0.00925501 0.093086004 -0.10058126
000380 b1 a7 48 bd 47 eb b7 bc a9 18 c8 3b df bc 99 bd
       -0.048988048 -0.022451056 0.0061064553 -0.075067274
000390 fa 54 9c bd e2 41 ce bd 6e 60 82 bd 2e 2f d0 3d
       -0.076333955 -0.1007116 -0.06366049 0.10165249
0003a0 ca 5b b7 3d ac 8f 61 bd d7 d1 6e 3a 78 c3 22 3d
       0.08953054 -0.055068657 0.0009110248 0.039737195
0003b0 0d 41 2f 3c 54 00 09 3e 07 d5 da bd 44 c7 d0 bd
       0.010696662 0.13379031 -0.10685163 -0.10194257
0003c0 a2 61 34 bd 01 8e 63 bd 71 1c a8 bb 99 b0 11 3e
       -0.044038422 -0.055555347 -0.0051303436 0.14227523
0003d0 44 42 bb bc e1 45 56 3d ba c0 ef 3d 7d 55 29 3d
       -0.022858746 0.052312735 0.117066815 0.041341294
0003e0 f0 d2 0b 3c 34 1c 11 3d 0b 5b 91 bc 60 a1 0c b9
       0.008534178 0.035427287 -0.017743608 -0.00013411557
0003f0 87 74 d4 bd 6a 0e 02 3d 0b f0 ee bc 90 3e 98 3d
       -0.10373788 0.031752028 -0.029167196 0.07433808

lstm.lstm.bias_hh_l0 f4 [256]
000000 5e b2 0f 3e 24 c1 88 bc 33 fe cb 3c bc ca bb 3d
       0.14032885 -0.01669366 0.024901485 0.09169528
000010 f8 84 73 bc 0d 24 ea 3c f2 1e 9e 3d 83 c4 bf 3d
       -0.014863245 0.028581643 0.07720746 0.093636535
000020 7c a6 07 3e 80 cd ea 3b 16 20 2f bd 33 18 3f 3d
       0.13247102 0.007165611 -0.04275521 0.046653938
000030 c9 1f 98 bc 92 e7 49 bd 92 65 93 bd e4 a0 c8 3d
       -0.018569844 -0.04929311 -0.071971074 0.097963125
000040 87 cf cf bc be c6 0b bd f2 fc 8f 3d 94 3e eb 3d
       -0.025367511 -0.034125082 0.07030667 0.11486545
000050 0b 1d 22 bd eb 5d 31 3d 4c f2 ed 3b c0 50 0b 3d
       -0.03957848 0.043302458 0.00726155 0.034012556
000060 7a c9 03 3e 2c 1e bc 3d b3 c6 8c 3d 91 89 76 bd
       0.12869826 0.09185442 0.06873836 -0.060189787
000070 e8 a0 b3 3d 79 9e d0 bd b0 74 65 3c 28 7c c5 3c
       0.08770925 -0.10186476 0.014004871 0.024107054
000080 3c 1f 42 3d 18 a2 4b bd 77 95 e5 3d 09 59 ed 3d
       0.04739307 -0.04971513 0.11210149 0.11589248
000090 46 27 e5 3d ca 02 ea 3c 20 fe 0f 3e 62 f9 9f 3d
       0.111891314 0.028565783 0.14061785 0.07811238
0000a0 82 f2 e7 3d 83 17 07 3c 63 ab be 3c d9 4b cc 3d
       0.113255516 0.008245352 0.023275083 0.09975404
0000b0 2a 70 38 3d 07 4e 7d 3d e6 53 79 bd 97 e1 22 bd
       0.045028843 0.06184199 -0.060871027 -0.03976592
0000c0 d4 4b 6d bd e9 4a be bc 97 ac 86 bd 19 31 f1 3b
       -0.057933643 -0.02322908 -0.06575888 0.007360589
0000d0 15 8b 63 bd b8 38 c3 3a 81 f2 88 3d 59 c2 8e 3c
       -0.05555256 0.0014894223 0.06686879 0.017426657
0000e0 fe b7 8b bd fc b1 c8 bd 58 52 7e bd 56 5b 2f 3d
       -0.06822203 -0.09799573 -0.062090248 0.042811714
0000f0 a4 b8 81 3d b4 9d 20 bd c3 c1 10 bd 86 28 0a 3e
       0.063340455 -0.039212897 -0.035341036 0.13492021
000100 e9 ef d4 bd eb 3a c5 3c 27 82 8e 3d f2 48 c7 3d
       -0.10397322 0.024075946 0.06958418 0.0973071
000110 4a e1 a9 bc 33 57 f0 3d 30 35 e3 3d 2f 23 cd 3c
       -0.020737309 0.11735382 0.11094129 0.02504119
000120 c9 63 d3 3d 5c 9a ca bd 00 a9 3b 3d d8 8a 17 bc
       0.10321767 -0.09892723 0.045815468 -0.0092494115
000130 f3 06 98 bd f8 56 ae 3d 1b 14 88 3d fa b1 7f bd
       -0.074232005 0.08512682 0.0664446 -0.06242559
000140 b4 91 0e bd e6 c9 f5 3d 0b 2e 40 3d f6 85 a8 3d
       -0.034806922 0.120014 0.04691891 0.08228676
000150 54 51 7c 3d bd 17 14 bd 9f 1e d2 3c f3 c2 b6 bd
       0.061600998 -0.03615545 0.025649367 -0.08923902
000160 d6 8b 79 3d d4 f5 28 3d 43 f3 5f bd eb e0 57 3d
       0.060924374 0.041250065 -0.05467535 0.052704733
000170 59 1d e4 bc 76 b2 b6 bd d4 69 19 3c 4b c1 07 bd
       -0.027846025 -0.089207575 0.00936361 -0.033143323
000180 0b 24 61 bd 00 ee c2 3d fc 12 b3 3d ad 33 7f 3d
       -0.054966014 0.09518051 0.08743855 0.06230514
000190 ee 8a 09 3d 67 57 b0 3d a7 4b bf 3d 8e 83 9f bd
       0.03357976 0.08610421 0.093406014 -0.07788764
0001a0 c5 98 15 3d b4 cc 65 3d d7 78 a1 bd 25 6f 07 3d
       0.036522646 0.056103423 -0.078843765 0.03306498
0001b0 ca 6a 59 bd ad f2 f1 bc cf 68 cf 3b bd a4 2d bc
       -0.053080358 -0.029534662 0.006329633 -0.010598359
0001c0 8c a1 a6 3d 0c 5f ec 3d 0e 32 dd 3d ff 06 40 3b
       0.08136281 0.11541566 0.10800563 0.0029301045
0001d0 f8 e0 c0 3d 0e aa af 3c 36 39 94 3d 32 c6 9d 3d
       0.094179094 0.021443393 0.072374746 0.077038184
0001e0 4d 8d 02 3e fa 13 bc bc db 36 65 bd d0 4c a8 3d
       0.12749214 -0.022958744 -0.055960517 0.08217776
0001f0 3a bb b9 3d b4 b1 01 3e 41 9f ad 3d 32 49 b8 3d
       0.09068914 0.12665445 0.08477641 0.08998336
000200 d2 6a 03 be 47 c1 8b 3d 63 34 88 3c a0 74 2f 3d
       -0.12833717 0.06823974 0.016626542 0.04283583
000210 76 f8 fc bd 27 09 0f bd a3 05 7e 3d 37 6c e0 bd
       -0.12352078 -0.034920838 0.062017094 -0.1095814
000220 1c 38 f3 bd 46 c0 d2 bb 70 7d 0b be 0e 65 03 3e
       -0.118759364 -0.006431612 -0.1362207 0.12831518
000230 af 98 f4 bd 80 e2 d5 bb 25 f5 01 3e 4d dc ea bd
       -0.119431846 -0.006527245 0.12691171 -0.114678
000240 09 ae 91 bc b2 72 b5 3d a8 ce b0 3d 58 6e 94 3d
       -0.017783182 0.08859767 0.086331666 0.07247609
000250 52 95 a4 3d cb 81 0c be 1f c0 b3 3c 6e 92 81 bd
       0.08036293 -0.13721387 0.021942196 -0.06326757
000260 ae 66 da 3d ff 73 09 bd b7 a7 0b 3e 15 ea 1d 3d
       0.10664116 -0.033557888 0.13638197 0.038553316
000270 52 ba b5 bd a9 16 61 3d ae ff e3 3d 5a 43 9f 3d
       -0.088734284 0.05495325 0.111327514 0.07776518
000280 a9 66 6d 3c 9a b6 bd bd 0c f1 78 bd de 49 04 3e
       0.014489808 -0.09263344 -0.060776755 0.12918803
000290 95 8f 7a 3b fa 7e 8e bd da b3 e5 bc be 74 07 be
       0.0038232554 -0.069578126 -0.028039861 -0.13228127
0002a0 4a 0e a3 3d 91 ec e3 bd fa be 0f 3e 34 5b 15 bd
       0.0796171 -0.11129106 0.14037696 -0.03646393
0002b0 9c 6d a5 bd c4 d9 c8 3d b5 39 48 bd c8 ac a1 bd
       -0.08077547 0.098071605 -0.04888316 -0.078942835
0002c0 4b 8a 1d bd 4f 04 0d bc e6 f8 0e be fa e2 08 3e
       -0.038461965 -0.008606984 -0.13962135 0.13367835
0002d0 44 2a f6 bd 8e e1 f7 bd 90 6c 63 bc e9 39 99 bd
       -0.1201978 -0.12103568 -0.013880864 -0.074817486
0002e0 bc d5 2c 3d 30 f3 87 bd 88 d6 bb bc 85 57 77 3d
       0.04219602 -0.06638181 -0.022929445 0.0603862
0002f0 d3 00 fc 3d be 88 96 bd f1 65 fe bc 29 b1 a2 bd
       0.12304845 -0.073503 -0.031054469 -0.07943947
000300 e6 f3 bc bd 26 b7 8e 3d e8 cd d0 3d 0e 96 ec 3d
       -0.092262074 0.069685265 0.101955235 0.11552058
000310 7d 70 c9 bd de b6 4c 3c a4 1d 29 bc 87 e8 71 3c
       -0.098359086 0.012494771 -0.010322008 0.0147649115
000320 e8 10 12 bd 90 0e ed ba 7c 13 ff 3d 1e 0f b7 3d
       -0.035660654 -0.0018086005 0.12454888 0.0893843
000330 66 f1 9e bc 53 8f 3a 3d 23 30 b3 3d d7 20 fa bc
       -0.019402217 0.04554684 0.08749416 -0.030533237
000340 a4 80 9f bc 4b 63 8f 3d 37 6f e2 3d a5 eb f3 3d
       -0.01947052 0.070013605 0.11056369 0.1191018
000350 c9 ff d7 3d 7e e4 00 3e 47 e0 f9 3d 18 ce 83 3d
       0.10546834 0.12587163 0.12200981 0.06435794
000360 17 f1 a5 bd e8 48 ea bd c1 f9 6c bd 87 13 88 3d
       -0.08102625 -0.11439687 -0.05785537 0.066443495
000370 2b e1 01 3b 12 77 81 3b 79 be a1 3c 22 79 c9 bd
       0.0019818048 0.003950962 0.019744145 -0.098375574
000380 f9 0d 36 bc 83 4d 73 bd 0f fb cf bd 5b 64 05 bd
       -0.01111173 -0.059400093 -0.101553075 -0.03256641
000390 66 4d 44 3d 11 f4 f7 bc 9a 2f 06 3e 38 a5 de 3d
       0.047925375 -0.030267747 0.13104096 0.10871357
0003a0 7a 2c 32 3d a5 bb d7 bc f1 dc b3 bd 84 52 af bd
       0.043499447 -0.026334593 -0.087823756 -0.085606605
0003b0 ad 50 97 bc 28 aa 37 bd 7c 85 59 3d 40 cf ea 3d
       -0.018471086 -0.044840008 0.053105816 0.11465311
0003c0 2b fb da 3d 15 06 cf bd 43 96 cf 3d 4d 34 97 3c
       0.10692438 -0.10108582 0.10136082 0.018457556
0003d0 a2 cf db 3d ef 0e d7 3d 11 18 59 bd d0 01 f9 3c
       0.10732962 0.10500895 -0.053001467 0.030396372
0003e0 f4 9e 43 bc 1d 0b 52 3c 85 b6 21 3d 06 82 cb 3d
       -0.011939753 0.012820032 0.039480705 0.099369094
0003f0 b0 50 1b 3d 7f f9 70 3c 71 59 e9 3d 91 bb e5 3d
       0.037918746 0.014707922 0.11394013 0.11217416

lstm.lstm.weight_ih_l1 f4 [256, 64]
000000 a0 20 fa 3b cc 62 af 3d f0 93 6c 3c 47 6f a0 3d
       0.0076332837 0.08563766 0.014439568 0.078337245
000010 d6 cf 77 3c b1 97 75 3c 7c 51 6a 3b 37 da d4 bd
       0.015125236 0.014989779 0.0035754135 -0.10393184
000020 26 02 8a bd 26 f2 db 3d a0 ec 91 3d 2c 9a 69 3c
       -0.06738691 0.107395455 0.07125211 0.014257949
000030 84 79 2a 3d a1 c9 ed 3d df 88 cb 3d 84 18 02 bd
       0.041619793 0.11610723 0.099382155 -0.03176166
000040 04 75 9d bd 37 4b 81 bb 9c 4d bf 3d 42 00 76 3d
       -0.076883346 -0.003945734 0.09340975 0.06005884
000050 1a 29 a0 bd 16 96 46 3c 9e 6a 82 3d 8e 95 63 bc
       -0.078203395 0.012120744 0.06367992 -0.013890637
000060 77 8b e2 bd 80 85 2f bd 90 9f 8f 3d 0a 7a 4d 3d
       -0.11061757 -0.042851925 0.07012856 0.050165214
000070 11 92 60 3d 6a b4 b0 bd 14 f7 f1 3b c5 01 45 bd
       0.0548268 -0.08628161 0.0073841903 -0.04809739
000080 12 c1 dc bd 18 af b0 bd f8 8f fd bc fd bd b1 bc
       -0.10779013 -0.086271465 -0.030952439 -0.021697039
000090 b4 0f 97 3d 89 3b 9f bc f8 e0 01 be c1 ec 7c bd
       0.07376042 -0.019437568 -0.12683475 -0.061749224
0000a0 79 d8 86 3d fc fb e5 bd 9e 40 b5 bd 24 33 e4 3c
       0.06584258 -0.11229703 -0.088502154 0.027856417
0000b0 cc fb 28 bd 05 88 ea 3d 80 fb 97 3d f4 31 17 bd
       -0.041255757 0.11451725 0.07421017 -0.036912873
0000c0 fd 63 db 3d ff 20 c4 3c c1 72 0b 3c f1 72 11 bd
       0.107124306 0.023941515 0.008511246 -0.035510007
0000d0 51 fd 8f bd d5 c3 a3 3c 07 fb 12 bd 99 82 bd bc
       -0.07030738 0.01999084 -0.03588393 -0.023133563
0000e0 a7 d7 fa 3c e0 8b 94 bd f8 df a7 3d 61 7e 56 bd
       0.03062041 -0.072532415 0.081970155 -0.052366618
0000f0 51 e7 a5 bb 36 af e9 bd 69 f0 f9 bc ac fe dd bd
       -0.0050629755 -0.11410372 -0.030510144 -0.108395904
000100 ad a4 92 bd ce 04 84 bd ec 97 b5 bd fd 63 9b 3d
       -0.07160316 -0.06446229 -0.088668674 0.075874306
000110 86 be 8d 3d 73 88 05 be fc 06 de 3d 63 11 66 3d
       0.06921105 -0.13040332 0.10841176 0.056168925
000120 12 fe 38 bd 59 f2 e5 3c b6 c3 46 bd c3 f4 6e 3d
       -0.045164175 0.028069662 -0.04852649 0.05833889
000130 00 bf 02 be a8 cf 5b bc a9 81 88 bd fe c5 de 3d
       -0.12768173 -0.013416208 -0.06665356 0.10877608
000140 b2 92 57 bd 88 ec e7 3d fa b6 a2 bd b6 a7 b5 bd
       -0.052630134 0.11324412 -0.07945056 -0.08869879
000150 96 52 e5 3d a7 e0 3a bd 8f f1 cf bd 67 be 27 bc
       0.11197393 -0.0456244 -0.101534955 -0.010238267
000160 e6 ab e4 3d ca c0 68 3c c0 ee da bd 63 f9 db bc
       0.111655995 0.014206121 -0.10690069 -0.026852315
000170 31 c6 cb bd 19 da e1 bd 0c 41 0a 3e 80 7a b4 bd
       -0.099499114 -0.11027927 0.13501376 -0.088124275
000180 81 dc 98 bd 38 5f 0a bd 59 f6 1f 3d db 30 cf 3d
       -0.07463933 -0.033782214 0.039053295 0.1011674
000190 4c 31 e7 bc c7 4e 84 3b 3c 32 83 bc 2f 99 f5 3b
       -0.028221749 0.0040377113 -0.016015165 0.0074950675
0001a0 10 ef 0b bd a9 34 ad 3c 76 d6 91 bc 0a 78 81 3d
       -0.034163535 0.021143274 -0.017802458 0.06321724
0001b0 72 f7 93 bd 13 2e f4 3d cf bc bc bc a9 fb 85 3d
       -0.07224931 0.119228505 -0.02303925 0.06542141
0001c0 3b c1 a5 bd 4e 93 fb bd f2 1b d4 3d 35 9d ba 3b
       -0.080934964 -0.122839555 0.10356893 0.00569501
0001d0 42 d7 94 bd 62 1d ab 3d 67 d2 cf 3c a5 d3 4b bc
       -0.0726762 0.08355214 0.025368882 -0.012440597
0001e0 f1 d7 b5 3d 0c 7b c2 bc c6 05 c0 bd 11 79 9c bc
       0.08879078 -0.023740314 -0.09376101 -0.019100698
0001f0 52 a7 42 3d 08 9c 1d bd f3 ed 3a 3c ff 39 c3 3d
       0.04752285 -0.03847888 0.011409271 0.09532546
000200 e2 3f 58 3c fc 02 7f bd ae 09 ab bc 88 97 b0 bd
       0.013198825 -0.062258705 -0.02087864 -0.08622652
000210 bf b6 02 be 34 6a 01 bd 5d 9c e7 3c 70 86 07 3c
       -0.12765025 -0.031595424 0.028272802 0.0082717985
000220 8f 78 aa 3d a1 88 b0 bd fe 90 8e bc 43 76 88 3d
       0.08323776 -0.0861981 -0.017403122 0.06663182
000230 4a ed e9 bd 96 97 6b bd a6 e5 5c 3d 7d 6e 64 3d
       -0.114222124 -0.05751761 0.053929947 0.055769432
000240 e3 28 a8 bd e2 6d 53 bd 1b f0 26 bb 34 30 fe 3c
       -0.082109235 -0.051618464 -0.0025472704 0.031028844
000250 1c cf 5a 3c 06 0c 4a bd 05 60 d9 bd d7 7e ac bc
       0.013355043 -0.049327873 -0.106140174 -0.021056576
000260 31 bb 14 bd 02 12 36 3d df c0 cc 3b 2c 11 de 3d
       -0.036311332 0.044450767 0.006248578 0.10843119
000270 af ff d3 3d 30 45 10 3a 9c fe 30 3d 8b ae c7 3d
       0.10351502 0.0005503474 0.043211564 0.09750088
000280 c8 a7 ab 3d 33 ed aa bd 6f fd 0b be 2c 6d e3 3d
       0.08381611 -0.083460234 -0.13670896 0.11104807
000290 d1 f9 43 bd 41 0b b3 bd 95 5d 3a 3c 93 5a 5a 3d
       -0.047845665 -0.08742381 0.011374851 0.053309035
0002a0 17 61 b8 3d 20 eb 8d 3d cb ad 9c 3c 13 99 15 3d
       0.090028934 0.06929612 0.01912584 0.036522936
0002b0 01 e3 f0 bd 9a a5 d9 3d dd ff c9 bd 3b ec dd bd
       -0.117620476 0.10627289 -0.09863255 -0.10836073
0002c0 97 50 aa bd af 81 be bd d3 05 ad 3d fc 75 6d bd
       -0.083161525 -0.09302079 0.084483765 -0.057973847
0002d0 c0 be a8 bd b5 10 40 3d 84 40 97 bb b4 3b ac 3b
       -0.08239508 0.046890933 -0.004615845 0.0052561406
0002e0 48 f7 bf 3d be 04 8b 3d f2 11 85 bd ec 7a a8 3c
       0.09373337 0.06788014 -0.064975634 0.020566426
0002f0 cd ff 08 3e 16 c0 61 3d 28 bb ef bc f7 ec df 3d
       0.1337883 0.055114828 -0.029264048 0.10933869
000300 fb 16 1e bd 2e b0 b0 3d c5 bb 36 3d 28 5a 59 bd
       -0.038596135 0.086273536 0.044612665 -0.053064495
000310 7c 10 f2 bd 82 c5 bf 3c 20 4e d1 bc 9c 03 01 3e
       -0.118195504 0.023409609 -0.025549948 0.12599033
000320 38 90 0b bd bc 18 4a 3d 61 03 a5 bd a1 08 89 3d
       -0.034073085 0.049339995 -0.08057285 0.06691099
000330 2b 14 59 3d d5 10 87 bc f9 40 df 3d 29 2d e2 bd
       0.05299775 -0.016487518 0.109010644 -0.1104377
000340 83 37 da bc b7 dc d5 3d 2f 4a c9 3d 83 87 df bc
       -0.026637798 0.10442489 0.098286025 -0.027286297
000350 a5 98 8d 3c 9a 3a 8f bc dc b5 b7 bc 22 7e 08 be
       0.0172847 -0.017483998 -0.022425584 -0.13329366
000360 ca c3 4e bd 81 63 72 bd 07 b0 be bd 3f cd b3 bd
       -0.050479688 -0.059176926 -0.09310918 -0.08779382
000370 9c b9 8c bd bf 02 4b 3c e2 af 71 3d 2e 91 7b 3c
       -0.0687134 0.012390791 0.059005626 0.015354438
000380 25 98 b0 bd 4e 5a f8 bd ec 47 d8 3c a3 d4 a9 bd
       -0.08622769 -0.12126599 0.026401483 -0.0829251
000390 9e 75 bb 3d f2 9b da 3d 58 b3 d6 bd 53 61 d0 3b
       0.09153293 0.106742755 -0.10483426 0.006359258
0003a0 99 98 97 bd 60 40 82 bd 86 8f 06 3d e5 b2 44 3d
       -0.074021526 -0.06359935 0.03285172 0.04802217
0003b0 7d e8 88 bd fd ab 6a bc ed e2 91 bd 02 07 12 bd
       -0.066849686 -0.014323232 -0.07123361 -0.035651214
0003c0 f3 61 d0 3d d3 c7 08 be 15 3f 20 bd 65 f3 0a 3e
       0.10174932 -0.13357477 -0.03912266 0.1356941
0003d0 ef 00 cf bd 0e 53 84 3d da 9d 3e 3d 9b 27 ca 3d
       -0.101076 0.06461154 0.046537258 0.098708354
0003e0 c8 92 a5 bd a5 28 1a 3d 50 da 24 bd be 3d 43 bd
       -0.08084637 0.037636418 -0.04024726 -0.047666304
0003f0 55 54 07 3e f0 83 83 3d a2 7c ca 3d 16 8e e7 bd
       0.13215764 0.064216495 0.09887053 -0.113063976

lstm.lstm.weight_hh_l1 f4 [256, 64]
000000 79 c5 e4 bd c3 51 b7 bc f9 ea f8 3d 90 e6 c3 bd
       -0.111704774 -0.022377854 0.121541925 -0.09565461
000010 a0 1a d0 ba 29 e2 b3 3d ba 20 03 bd c9 af c0 bd
       -0.0015877075 0.08783371 -0.032013632 -0.09408528
000020 81 ce c2 3c 6f 24 dd 3d fc e4 ea bd 3b c4 cc 3d
       0.02378011 0.10797965 -0.114694566 0.099983655
000030 98 f1 e7 3d af 4a 29 3d 2f 4a bf 3d aa ec c6 3d
       0.11325377 0.04133099 0.09340321 0.09713109
000040 19 ca d0 3d fa c7 c5 3d ff 8a 0a bd e3 d3 ad 3d
       0.10194797 0.09657283 -0.033823963 0.0848768
000050 4e bd c0 3d 1f ee 74 3d 0f 56 06 bd 4c b6 12 bc
       0.09411107 0.059797402 -0.032796916 -0.008954596
000060 f4 64 be 3a 92 bc 8d bd 01 0e bf bc 75 0a 01 3d
       0.0014525936 -0.069207326 -0.023322107 0.031504113
000070 23 27 b1 3c f8 1c 2e bd 4b f8 cd bc 99 fd 6b bd
       0.021625107 -0.042508096 -0.02514281 -0.057614896
000080 e0 0d 6e 3d 9d f6 c0 bd 4c b9 28 bb dc af ae bd
       0.0581187 -0.09422038 -0.0025745211 -0.08529636
000090 90 8c cb 3d b0 15 2d 3d 18 cb 8c bd b4 e9 c6 bd
       0.099389195 0.04225701 -0.068746746 -0.09712544
0000a0 4a 5b 28 bc bf 5b 17 bd 7e 53 ac 3d a3 24 a6 3b
       -0.010275671 -0.03695273 0.08414362 0.0050702854
0000b0 f3 95 53 bd da af e3 3c b0 94 02 3d 39 43 f3 bd
       -0.051656675 0.027793813 0.03188008 -0.11878056
0000c0 a7 e8 a0 3d 17 c9 85 3d e3 e3 5b bc 13 19 ba 3d
       0.07856875 0.065324955 -0.013421032 0.09086814
0000d0 58 51 64 3d 0f c3 38 3c 61 4e 83 bc cf 73 f2 bd
       0.055741638 0.011276974 -0.016028585 -0.11838495
0000e0 9b 44 9a bd 37 8a 9e bd b6 48 01 be a2 ba f8 bd
       -0.07532617 -0.07741206 -0.12625393 -0.121449724
0000f0 16 a6 d7 3d 7b 50 b4 3c a9 d0 64 3d 66 88 0e 3c
       0.10529725 0.022011032 0.055863056 0.008699512
000100 e2 64 d4 3b fa fb 0b be 92 15 bd bd 04 da 7b bd
       0.0064817527 -0.1367034 -0.0923263 -0.061487213
000110 42 48 92 3d 80 24 1d bd ea 47 4e 3d d0 4e 8c 3c
       0.07142688 -0.038364887 0.05036155 0.017127424
000120 83 b0 87 3d d8 5a 4f bd bf ad d4 bd 8a 33 5a 3d
       0.06625464 -0.050623745 -0.10384702 0.053271808
000130 2d 3c af bc 49 ca 95 3d 2b ee a6 bb 5e 83 dd bd
       -0.021390999 0.073139735 -0.00509431 -0.10816072
000140 e3 7e 8e bd 4f 6d 86 3d d9 d2 12 bd 87 61 fb 3d
       -0.069577955 0.06563818 -0.03584561 0.12274461
000150 38 6c ff 3d 20 4e 12 3d 99 f7 2d bd fa 26 9e bd
       0.12471813 0.035719037 -0.042472456 -0.07722278
000160 77 63 0e 3d 0e 5b 29 3d 99 7b 02 3e be db a7 3d
       0.034762826 0.041346602 0.12742461 0.08196209
000170 e6 b4 ab 3d 01 00 82 bd 6b cd 9a bd 0b a8 fd 3d
       0.08384113 -0.06347657 -0.075587116 0.12385567
000180 23 74 11 bd 94 d5 6c bc 90 76 05 3d 3a 44 b8 bd
       -0.035511147 -0.014455218 0.032583773 -0.08997388
000190 de ed cc bd 88 ad 5a 3d aa 52 c6 bd ac d8 60 3b
       -0.10006307 0.05338815 -0.09683736 0.0034308834
0001a0 c7 1d 4b bd f2 1b 0e 3b 8b 41 c2 3c d6 bf 14 bc
       -0.049588945 0.0021684137 0.023712894 -0.00907894
0001b0 ee d0 e4 bd 76 f3 eb 3d 84 e4 b2 bd 64 48 e7 bd
       -0.11172663 0.11521046 -0.08734992 -0.11293104
0001c0 c6 c7 fb 3c 26 d2 2d 3b 9a 5e 8e bd 00 ca 83 bc
       0.030734908 0.0026522963 -0.069516376 -0.016087532
0001d0 96 32 00 3d 75 cc e0 3d aa b5 bf 3d cd 9a 20 3d
       0.031298243 0.10976497 0.093608215 0.03921013
0001e0 8d 45 eb 3c 7e e7 ce 3b 2f 48 62 bc f7 76 88 bc
       0.028719688 0.006314217 -0.013811155 -0.01665829
0001f0 6f 00 2b 3d 31 45 a3 3d ac 92 e0 3b 71 ab c8 bd
       0.04174846 0.079721816 0.006853422 -0.09798325
000200 56 9c fb 3d 59 11 d9 3d b6 81 31 bd 78 52 86 bd
       0.12285678 0.10599012 -0.043336593 -0.065586984
000210 c3 67 21 bc 66 63 ab 3d 68 fc 7b bd e9 09 f7 3c
       -0.009851399 0.08368568 -0.06152001 0.030156093
000220 04 d2 eb 3d c3 bd 00 be 63 d0 b7 bd 1f d1 ae 3d
       0.11514667 -0.12572388 -0.089752935 0.085359804
000230 bd 37 01 bc 51 1c 87 3d 50 d5 1f 3d f2 07 d5 3d
       -0.007886824 0.06597198 0.03902179 0.10401906
000240 81 ba d9 3d d9 06 17 3d 70 09 15 3d 2b 09 cf bd
       0.10631276 0.036871765 0.036385953 -0.101091705
000250 0d 07 c8 bb 91 47 a0 3d d4 f5 12 bc 67 57 07 be
       -0.006104356 0.0782615 -0.008969743 -0.13216935
000260 e5 7a 3e 3d b2 a6 c6 bd 8f 58 81 3d de fd a6 bb
       0.04650392 -0.09699763 0.06315719 -0.0050961813
000270 12 af 29 bd c2 23 ac bd 63 58 0d be 79 89 2f 3d
       -0.041426726 -0.08405258 -0.13803248 0.042855714
000280 ce be e1 bd 73 1a 23 3d d3 40 18 3d b3 4e 39 bd
       -0.11022721 0.039820146 0.037171196 -0.04524107
000290 74 11 57 3c ce ba 8b bc 4e 74 a2 bd ef 7a 1e 3c
       0.01312672 -0.017056849 -0.079323396 0.009672864
0002a0 4f d5 94 bd a0 55 89 3d 0d 9a b6 3d 4a 92 0d 3e
       -0.07267248 0.06705785 0.089161016 0.13825336
0002b0 48 5c fc 3c 59 4a ac bd 92 7c a2 bd f4 d8 6c 3d
       0.030805722 -0.08412618 -0.07933916 0.05782409
0002c0 05 d8 0a be 7f 7e 8e bd 48 5c 92 bd 27 b4 98 3d
       -0.13558967 -0.06957721 -0.071465075 0.07456236
0002d0 3c e8 77 3d 1d 1b 9d 3d c2 73 ce bd 0f 49 93 3c
       0.06052421 0.07671187 -0.10080673 0.017979173
0002e0 13 4a 9d ba dd 5a 2e 3d 39 d5 2a 3d 5a 14 b5 bd
       -0.0012000225 0.042567123 0.04170725 -0.088417724
0002f0 06 da dd bd 95 ad c5 3d ea 12 a0 3d 14 80 f7 bd
       -0.108326 0.09652249 0.078161076 -0.12084976
000300 c2 3b 9e ba 1b bf ce bc 2d 3d 8f bd 85 cc 48 3d
       -0.0012072253 -0.02523761 -0.0699409 0.04902317
000310 1f 85 d3 bd 89 d2 b3 bd 49 28 c8 3c 42 1a 65 3c
       -0.10328125 -0.08780391 0.024433272 0.013983311
000320 5a 9d 41 bd 70 18 04 be 6b 42 0c 3e f9 39 89 3c
       -0.047269203 -0.12899947 0.13697211 0.016751276
000330 f0 8a c6 bc 56 9f 38 3d b2 c3 c7 bd 0a 87 be bc
       -0.024236172 0.04507383 -0.09754123 -0.023257751
000340 16 da 71 bb 95 89 05 bd 8e d3 d2 bd aa 2a ac 3b
       -0.003690367 -0.03260191 -0.10294257 0.0052541094
000350 9e cc e5 3d 71 57 0d be 72 1e d2 bb 8e 02 e8 3c
       0.11220668 -0.13802887 -0.006412321 0.02832153
000360 eb a5 0e bd d6 17 98 bd 1f 91 3c 3d 62 63 93 3d
       -0.0348262 -0.07426421 0.046036836 0.0719669
000370 89 9e a7 bd 77 1a 95 bd 5a b9 fc bd ff 03 3a bd
       -0.08184535 -0.072804384 -0.123400405 -0.045413967
000380 e7 a6 60 3d 07 9b 6e 3d 06 d5 10 3e 66 ce 81 bd
       0.05484667 0.058253314 0.14143762 -0.063381955
000390 6b 76 12 bd 62 20 db 3d 15 0d a8 bd c1 29 15 3b
       -0.035757463 0.10699536 -0.0820562 0.0022760483
0003a0 29 20 eb 3d 3d e7 96 bd db 06 db bc 04 3f b5 3d
       0.114807434 -0.07368324 -0.026736667 0.0884991
0003b0 f4 a7 79 3d 76 12 6c 3d 60 6d 0f 3d 72 36 35 bd
       0.06095119 0.057634793 0.035016418 -0.044241376
0003c0 69 2c 9b bd 90 86 f2 3c 15 03 61 bd 03 d6 92 3c
       -0.0757683 0.02960518 -0.05493458 0.017924314
0003d0 9b d9 6a bd 58 1c dc bd 81 00 bb 3d fe bd dd 3b
       -0.05733643 -0.10747594 0.091309555 0.0067670336
0003e0 43 c2 a4 3d 58 80 47 3d d7 bc b6 3d 8d 82 79 bc
       0.08044865 0.048706383 0.08922737 -0.01522888
0003f0 d7 50 a1 bd 0a cd 94 bd 1a ec 6e bd ef f1 36 3d
       -0.07876747 -0.072656706 -0.058330633 0.04466432

lstm.lstm.bias_ih_l1 f4 [256]
000000 5c 01 81 bd 2c 7d 99 3d 00 ad 21 3b bc a1 31 3d
       -0.062990874 0.07494578 0.0024669766 0.043367133
000010 24 3c 91 3d e3 5e 46 bd ff 76 48 3d 9f cf 78 3d
       0.07091549 -0.048430335 0.04894161 0.060744878
000020 26 80 8c bd dc 0d 25 3d 3e d2 16 bc af f3 8d bd
       -0.0686038 0.04029642 -0.009205399 -0.069312446
000030 2c a0 cd 3c d3 5b 66 3c 87 71 59 3d 37 44 90 bb
       0.02510079 0.014059979 0.053086784 -0.004402663
000040 dd 99 6f bd 20 12 92 3d 89 8a 1a 3d fc 0b 3b 3d
       -0.058496345 0.07132363 0.037729774 0.045665726
000050 8e fb 16 bd e4 5e 0a 3e 85 0c 32 3d 1a dd 32 bd
       -0.036860995 0.1351276 0.04346897 -0.04366789
000060 1b 52 ce bd 2c 3b 37 3d a3 fd ce bd af bc b6 bd
       -0.10074254 0.044734165 -0.10106971 -0.08922707
000070 30 66 76 3d 62 90 9e bc a5 a7 1e 3d 99 ca 01 3e
       0.060156047 -0.019355956 0.038734097 0.12674941
000080 b4 92 91 3b c1 58 4e 3d 98 1f a4 bd 23 0e c9 bd
       0.004442537 0.05037761 -0.080138385 -0.098171495
000090 42 e9 9d 3d f7 de 83 3d 10 79 a4 bd 5e 70 45 3d
       0.07710506 0.064390115 -0.08030903 0.048202865
0000a0 71 77 19 3d 47 dc 68 3d d4 c8 cd 3d 43 d1 8d bd
       0.037467424 0.056850698 0.100480705 -0.06924679
0000b0 dd b9 c0 3c e7 2c b4 3b b0 44 64 3d af c3 fd bc
       0.023526127 0.005498517 0.055729568 -0.030977098
0000c0 6b a0 5c bd d2 bc 52 bc bb 0b b9 bd ac 80 99 3d
       -0.053863924 -0.012862401 -0.090354405 0.07495245
0000d0 24 44 06 3e b8 02 63 3d 51 03 55 bb b2 5c e0 bd
       0.13111931 0.055422515 -0.0032503197 -0.1095518
0000e0 40 1f a9 bc 86 04 c0 bd 43 4e cd bc 87 2e 4c bc
       -0.020644784 -0.09375863 -0.025061732 -0.012462265
0000f0 5c a5 27 3d 85 59 7e 3d a5 2b c3 3d 6d 5f ca bd
       0.040929183 0.06209709 0.09529809 -0.09881482
000100 3b 66 36 3d 2c aa 6f 3c 0f 31 c5 bd f8 b6 b6 3d
       0.04453109 0.0146279745 -0.09628498 0.08921617
000110 df b6 b6 3d 6d 16 17 bd fc a6 82 bd fc 12 2d 3d
       0.08921599 -0.03688662 -0.06379506 0.042254433
000120 d7 2c 0a 3e 3a a0 9e bd 66 63 02 3e fb 34 e9 3d
       0.13493668 -0.077454045 0.1273323 0.11387058
000130 10 55 df 3c 4f 6e db 3d 6f 07 17 3d a2 7b ab bd
       0.02726224 0.10714399 0.036872324 -0.083731905
000140 91 86 d1 3d 35 4d 97 3c cb 40 05 bc 2a 39 06 3e
       0.10230745 0.018469432 -0.008133124 0.13107744
000150 f0 2c 77 3d 13 a6 e1 bd 37 c6 09 3e 11 a5 6b 3d
       0.06034559 -0.11018004 0.13454519 0.057530466
000160 0e fb d4 3c db 2c 92 bc f8 33 58 bd 78 75 c8 3c
       0.025998618 -0.017843654 -0.052783936 0.024470076
000170 d9 69 49 3d 46 4f 19 bc bc 76 fe 3d 30 f4 c9 3d
       0.04917321 -0.009357279 0.124249905 0.09861028
000180 b0 35 fc 3d 0d d1 71 bd e2 d6 05 3e 7f f7 8a 3c
       0.123149276 -0.059037257 0.13070253 0.016963718
000190 ed 91 08 bd e0 bd 24 bd 5a 97 fd bd 1d ac 40 3d
       -0.03334229 -0.04022014 -0.12382384 0.04703914
0001a0 4c 82 92 bd d1 be 89 3d 44 13 c3 bd af 14 0a 3e
       -0.071537584 0.067258485 -0.09525159 0.13484453
0001b0 6e e4 f4 3c 3b 69 de 3d 2a b5 49 3b 8c c7 e1 3c
       0.02989408 0.10859915 0.0030778148 0.027560972
0001c0 19 90 6b bd ea 4e ee bd 46 8b d4 bd 1d d2 d5 3c
       -0.05751047 -0.116361454 -0.10378127 0.026101166
0001d0 10 ee af 3d 11 72 35 3c 8c 26 1e bd fe 00 e2 3d
       0.08590329 0.011074559 -0.03861098 0.110353455
0001e0 3d f2 e4 3d 51 f0 59 bc ca 1f 90 3d 23 4d c9 bd
       0.11179016 -0.013301925 0.07037313 -0.09829166
0001f0 f3 cf f2 3d e1 45 39 3c 32 95 c3 3d 72 fd fb ba
       0.118560694 0.011308164 0.09549941 -0.0019225313
000200 fa 86 7f bb e4 a1 d8 bd 82 d5 2e 3d 27 aa b8 bd
       -0.0038990364 -0.10577753 0.042684086 -0.09016829
000210 da 09 2d bd 03 ed 83 3d 65 16 ba bd 73 c4 03 be
       -0.042245723 0.06441691 -0.09086303 -0.12867908
000220 a9 17 37 3d e5 13 b4 bd c6 66 1b 3d 94 4e ea bd
       0.0447003 -0.08792857 0.03793981 -0.11440769
000230 23 14 54 3d 0d 06 33 bd a4 9a 08 3e 52 30 24 bb
       0.051777016 -0.043706942 0.1334024 -0.0025053215
000240 18 6f 9d bd 25 9c ce bd ed d1 d2 bc c4 4f 34 bc
       -0.07687205 -0.10088376 -0.025734866 -0.011005346
000250 73 6d 01 bd 13 9b 55 bd cb 28 62 3d 1e 9e cf bd
       -0.03159852 -0.052149843 0.055214684 -0.1013758
000260 13 24 1f bd b6 03 b3 3d bd b9 00 3e 18 62 43 bc
       -0.038852762 0.08740942 0.12570854 -0.011925243
000270 ec 36 21 3b 68 5f 74 bc f1 66 9e 3c 4b dd 78 bd
       0.0024599386 -0.014915325 0.019336196 -0.060757916
000280 f0 b4 72 bd 05 2e dd 3d 63 41 91 3d 00 dc f7 3c
       -0.059254587 0.10799793 0.0709255 0.030256271
000290 6d bb b7 bd b1 c2 69 bc d6 79 3f 3d 7d 71 0b 3d
       -0.089712955 -0.014267609 0.04674705 0.034043778
0002a0 36 fe ac bd 7c 2b e0 3d ff 5d cb 3d 35 12 bf 3d
       -0.084469244 0.10945794 0.09930038 0.093296446
0002b0 f1 3c 6e bc 82 b1 97 bd 87 5c f1 bd 79 51 b6 3d
       -0.014540897 -0.07406904 -0.11785226 0.089022584
0002c0 58 66 d3 bd b1 63 a8 3d 89 25 db 3d 76 e4 68 3d
       -0.10322255 0.082221396 0.10700519 0.056858502
0002d0 a8 63 b8 bd 63 aa cd bc 34 7b 28 3d 25 47 74 bd
       -0.09003383 -0.02510566 0.04113312 -0.05963816
0002e0 b4 15 a1 bd 15 8b cc 3b 4d 75 ad bd 88 8d be bd
       -0.07865468 0.006242166 -0.08469639 -0.09304339
0002f0 14 b8 e3 bd bc 9a 05 3e 55 db bd 3d f6 ed b7 bd
       -0.111190945 0.13047308 0.0927035 -0.08980934
000300 2a 40 d2 3d ff a0 76 bd c1 9d aa bd 87 bd f4 3d
       0.102661446 -0.06021213 -0.083308704 0.11950212
000310 56 d1 1e bd e2 48 82 3d f1 fa 27 3d e3 af 9f 3c
       -0.038773857 0.063615575 0.0410108 0.019493049
000320 bd be 37 bd 92 2c 9e 3c a0 45 91 bd 41 94 ca 3d
       -0.044859637 0.019308362 -0.07093358 0.098915584
000330 a2 59 95 bd f3 61 9f 3d 41 04 a4 bd b2 1b ee bd
       -0.07292487 0.07782354 -0.08008624 -0.11626376
000340 32 3f 84 bd aa 35 c6 3d 86 20 0b 3b e8 e2 56 3d
       -0.06457366 0.09678204 0.0021229102 0.05246249
000350 9f 7f f3 3c 14 be 8c 3c a6 68 84 bd c7 86 63 bd
       0.02972394 0.01718048 -0.064652726 -0.055548456
000360 04 07 25 3d de d2 3b 3d 9c 56 a3 3d f1 5a 4f bd
       0.040289894 0.045855395 0.07975504 -0.050623838
000370 a7 15 d5 bd 15 71 8c bc 76 25 4a 3c b6 7b 2c bd
       -0.104045205 -0.017143765 0.012338033 -0.042110167
000380 d1 f0 ff 3c 8a 07 95 3d 3b 34 3c bd 6f fc b0 bd
       0.03124276 0.072768286 -0.04594825 -0.08641898
000390 e3 7d b2 3d 54 91 af bd c5 79 ab 3d 76 6c 69 bd
       0.08715417 -0.08572641 0.08372835 -0.056988202
0003a0 8f 39 6e 3d 76 17 de bd 45 0f ac 3d be f2 43 bd
       0.05816036 -0.108443186 0.0840135 -0.04783892
0003b0 80 b7 ba 3d fc db 0c 3d 10 99 57 bd 9a 9b b1 3d
       0.09117031 0.03438948 -0.052636206 0.08672257
0003c0 6d d1 49 bd 61 bf df 3d ca 00 4e bb d3 6c 52 bd
       -0.04927199 0.109251745 -0.0031433576 -0.051373314
0003d0 16 55 0a 3e e7 ba 28 3d d1 11 dc bd 23 e1 b2 bc
       0.1350902 0.04119387 -0.10745586 -0.02183587
0003e0 40 eb 44 3c 1b 8e ac bd 02 f5 89 3d bd 2a 7c bd
       0.012018979 -0.08425542 0.06736185 -0.061564196
0003f0 7b 44 de 3d e3 07 96 3d 4d f0 88 3d b9 cc ce bd
       0.10852905 0.07325723 0.06686459 -0.100976415
