4. Deep learning part/DL_daily/final_model_state.pth (torch, 15804 bytes, 18 tensors)

lstm.lstm.weight_ih_l0 f4 [48, 1]
000000 0f 96 a1 bd 35 db 89 3e 00 0f aa be 76 3f 98 3e
       -0.078899495 0.26925054 -0.3321457 0.29735917
000010 b0 ec 0c 3d bd bd 54 3e 5d 0a 99 3e 0a 32 ad bd
       0.03440541 0.20775504 0.2989072 -0.0845681
000020 6a eb 9c 3d 91 c3 19 3e ea 9b d7 bc 55 43 08 3e
       0.07662089 0.15016009 -0.026319463 0.13306935
000030 8b be bc bb 4d 26 34 3e 7e b4 df bd c0 58 b8 3c
       -0.005760019 0.17592736 -0.10923098 0.022503257
000040 57 33 c8 ba 7a a1 23 bb 1e be 5c 3e 79 8b 01 3e
       -0.001527409 -0.0024968074 0.21556899 0.12650861
000050 3a 93 c8 3d cd 07 af 3e 4b 7f 4c be 9b d2 c1 3d
       0.09793706 0.3418564 -0.19970433 0.09463998
000060 ab 64 20 3c 52 fb 72 be c9 74 85 bc 58 9e 10 bb
       0.009789626 -0.23728684 -0.016291039 -0.0022067036
000070 f4 b4 8b 3e 91 91 52 bd 41 50 ae 3d 07 0b 8a bd
       0.27286494 -0.051408354 0.08511401 -0.067403845
000080 ea c2 b9 3d 86 80 bf 3e 10 25 01 3e ab 06 83 3d
       0.0907038 0.37402743 0.12611794 0.06397756
000090 fd 9d 51 be ff 86 96 3e 13 a8 10 3d 32 65 61 be
       -0.20470424 0.2939987 0.035316538 -0.22011259
0000a0 97 01 8b be 51 0c b8 3e df 01 84 3e 76 b4 a6 3d
       -0.2714965 0.35946897 0.25782678 0.08139889
0000b0 7f 83 b0 3d 75 f3 14 be 2a cc 95 bd da 7b a9 be
       0.08618831 -0.14545996 -0.07314332 -0.33102304

lstm.lstm.weight_hh_l0 f4 [48, 12]
000000 d1 4c 4a be 7e a1 53 3d cd f2 18 3e 64 6e 45 3b
       -0.19755866 0.051667683 0.14936371 0.0030125612
000010 f1 90 92 3e 1b 71 f7 3d 1b ac 56 be 0e 1c 90 bc
       0.28626207 0.1208212 -0.2096409 -0.017591503
000020 b5 c6 2b 3c 6a 62 aa 3d a6 9a 8c bd 73 75 77 3e
       0.010484387 0.08319552 -0.06865434 0.24165897
000030 4b f7 3f be 2b 30 1b be 84 0c 11 3e 7d b9 26 bd
       -0.18746679 -0.15155093 0.1416493 -0.04070424
000040 a7 13 92 3e 02 84 1d be 2f 10 6f 3e 0d 9c 5f 3e
       0.2853062 -0.15382388 0.23346017 0.21836872
000050 21 70 e3 3d 5e 69 8b bd b7 2b 7d bd fd 77 80 3e
       0.11105371 -0.068072066 -0.061809268 0.25091544
000060 86 5f 14 3c e3 05 a5 bc 48 dd 97 bc f2 52 34 bd
       0.009055978 -0.020144409 -0.018538132 -0.044024415
000070 1e c7 c0 3d 4d b1 ee bd 0f 41 80 3d 92 8f b4 be
       0.094129786 -0.11654911 0.06262409 -0.35265785
000080 c1 bd b8 be 4a 05 9b be 30 4c 2d bc a2 f8 0e be
       -0.3608227 -0.30277473 -0.010577247 -0.13962033
000090 27 d7 b6 3c 4e eb ba 3d a2 44 4b 3d 38 c9 33 bd
       0.02231939 0.09126912 0.049626 -0.04389307
0000a0 ff 83 92 3e eb c0 c2 3d 04 66 ba bc 91 3c 89 3c
       0.2861633 0.095094524 -0.022753723 0.016752513
0000b0 d2 0f 65 bd 42 09 82 3d 7c fa 3b be 60 78 51 3e
       -0.05592329 0.06349422 -0.18357271 0.20456076
0000c0 ef 63 54 be e1 8f 0a 3e 90 3d aa 3e 96 c0 8a 3e
       -0.20741247 0.13531448 0.33250093 0.27100056
0000d0 79 68 03 bd 70 4b d4 3d 03 05 45 bc c8 4b 29 be
       -0.032082055 0.10365951 -0.012025121 -0.16532815
0000e0 59 d5 6b be cb 3e c3 be b6 cb 29 be 88 98 7e be
       -0.23030604 -0.38133845 -0.16581616 -0.24862874
0000f0 ce fa 0e be 65 8d 87 bd e9 c1 16 3e 63 43 12 3e
       -0.13962862 -0.06618766 0.14722408 0.14283518
000100 48 f7 2a 3e d5 2a 84 be 43 aa a4 3e 04 82 33 be
       0.16695893 -0.25813928 0.3216115 -0.17530066
000110 8a 77 58 be fe 10 9f 3d d4 e3 5c be 66 a2 4e 3d
       -0.2113935 0.07766913 -0.21571285 0.050447844
000120 ac 44 27 be 30 88 a1 be a7 74 b6 3b 96 f6 5f bd
       -0.1633479 -0.31549215 0.0055681053 -0.054678522
000130 e9 a8 27 3d a6 c5 74 be bb 82 cb 3d bf ca 70 3e
       0.04093257 -0.23903522 0.09937044 0.23514841
000140 c0 1c 3b be 9d 80 85 3c 7b e5 64 be bd d1 88 be
       -0.18272686 0.01629668 -0.22353165 -0.26722518
000150 4b 98 bb bd e0 6b ba be 2b f6 00 be 45 6e 08 bd
       -0.09159907 -0.36410427 -0.12593906 -0.033308286
000160 be 1c 34 bc 28 bd c5 be 88 68 ec b9 9d 1e 8c 3e
       -0.010993181 -0.38620877 -0.0004509131 0.27367106
000170 b1 e6 71 3e e9 70 0d 3d 46 fc 66 3e 9a bb bc 3c
       0.23623158 0.034531508 0.22557172 0.023038674
000180 e3 86 1b be 31 f3 16 3d d9 d9 20 bd 49 b5 40 be
       -0.15188174 0.03685302 -0.039270256 -0.18819155
000190 40 d5 a9 bc ae 91 45 bd 43 c8 d1 bd cc 97 0b 3d
       -0.020731568 -0.048234634 -0.10243275 0.03408031
0001a0 64 44 b6 3e e1 e6 5a bc fa 83 1c bb 00 91 24 3e
       0.35599053 -0.01336071 -0.0023882375 0.16070938
0001b0 7b a3 a5 3c 05 af 40 be 0d 98 99 3e 37 82 c9 be
       0.020219555 -0.18816765 0.29998818 -0.3935716
0001c0 86 3b 41 3e b2 52 1e 3e 53 1e 3e 3e 46 1c b1 3c
       0.18870363 0.15461233 0.18566255 0.021619927
0001d0 a2 3e 05 3e 53 5c ef 3d fb e2 6f 3e 5f 3c 8a 3e
       0.13012174 0.11687531 0.2342643 0.26999184
0001e0 20 38 e7 bc fc 92 c7 3e f9 fe d9 3b dd 9c 4f bd
       -0.028225005 0.38979328 0.0066527096 -0.050686706
0001f0 1d fc a9 be 2a 4d 46 3e b4 1a 84 be ba fc a0 3d
       -0.3320016 0.19365373 -0.25801623 0.07860704
000200 ae d9 35 3c fe 4d bf be d0 95 75 3e c4 3e 70 be
       0.011099262 -0.3736419 0.2398293 -0.23461443
000210 95 76 c5 be 9e e8 09 bb e0 96 00 3e 61 ca b2 3e
       -0.38567033 -0.0021043192 0.12557554 0.34920028
000220 04 b4 2b 3e 57 d4 24 be 3f e2 93 3e ac 68 67 be
       0.1676789 -0.16096626 0.2888355 -0.22598523
000230 95 f3 38 be 1b f0 0f 3d 3f 3e 5b be 53 24 bc 3d
       -0.18061669 0.03514109 -0.21410464 0.09186616
000240 ce a2 1d be 29 f7 f2 bd b5 1a 34 be 61 4e 4f be
       -0.15394136 -0.11863548 -0.17588313 -0.20244743
000250 ff 66 30 be 84 01 a2 be 58 bd 97 be 5b aa da 3d
       -0.1722679 -0.3164178 -0.29636645 0.10677024
000260 56 a1 64 be b1 79 32 3c e9 20 c9 bd 5b 2f 33 3e
       -0.2232717 0.010893271 -0.0982073 0.17498533
000270 30 2e 2e 3e d2 2f 91 be 75 1b a4 3d 9f f2 33 bd
       0.17009807 -0.28356797 0.080130495 -0.043932553
000280 cb 79 6d 3e 84 f2 12 3e f0 45 b3 bd fd dc 3e be
       0.23190992 0.14350325 -0.08753574 -0.18638988
000290 8f 87 05 be 9a 67 1e be 9a a6 aa be a1 d8 b0 3e
       -0.13039993 -0.15469208 -0.33330232 0.34540275
0002a0 f9 cd e0 be 73 be 85 bd 72 b3 30 3e 9a 41 e1 3e
       -0.43907145 -0.06530466 0.17255953 0.43995363
0002b0 0a ca 22 bd 51 d0 83 3d 13 1c e2 3d 64 38 5c be
       -0.03974346 0.064362176 0.11040511 -0.21505886
0002c0 ac 71 43 3d 21 be 1d 3d d5 be 2b 3e c2 c7 95 3d
       0.047715828 0.0385114 0.16772015 0.073134914
0002d0 db c4 cc 3d 3e dc 60 be c4 33 14 be 68 3a b1 3d
       0.09998485 -0.21959016 -0.14472872 0.08653718
0002e0 a9 2d 91 bc 4d fe b3 bd 3e 19 79 3e 49 25 d8 3c
       -0.017721968 -0.087887384 0.24326035 0.026384966
0002f0 6a be f5 3d 9e a7 2c 3e 7f 21 9b 3d 9e b9 fc 3d
       0.11999209 0.16860816 0.07574748 0.12340091
000300 33 27 9c be d5 cc cd bd 63 19 66 3e 39 3f d0 3d
       -0.30498657 -0.10048834 0.22470622 0.10168309
000310 33 24 03 be f9 b7 a2 3e 14 79 c9 bd ce c4 01 3e
       -0.12806778 0.31780985 -0.09837547 0.12672731
000320 b9 24 7c bd 18 9a 55 3d 92 f9 42 3e d6 5c b7 be
       -0.06155846 0.05214891 0.19040516 -0.35813016
000330 07 23 52 be 21 5d 25 3c 61 f2 f1 bd d0 ea 56 3e
       -0.20521174 0.010093004 -0.11813808 0.20988011
000340 56 28 24 be 95 8a 25 be fa 1f 36 3e 3c 62 ae 3d
       -0.16031012 -0.16166146 0.17785636 0.085148305
000350 d0 01 1e 3e e5 6c 9c 3e f7 94 7d 3e 3a bd 4c bc
       0.15430379 0.3055183 0.24763857 -0.012496287
000360 30 3d 91 bd 52 92 52 3e c4 e4 77 3d 6d ad eb 3d
       -0.07091749 0.2056363 0.060520902 0.11507688
000370 f2 04 a5 bd 98 fa 0f 3d 45 73 af 3e 41 54 6f 3e
       -0.08057584 0.035151094 0.3426763 0.23371984
000380 b4 77 7f 3d d7 6d 70 be 9e 80 c7 3d 21 1b 56 be
       0.062370017 -0.234794 0.09741329 -0.20908786
000390 e7 dd 12 bc 1f b6 94 3d 2c cf 9a 3e e9 ec 50 3d
       -0.008964038 0.07261299 0.30236185 0.051007185
0003a0 e0 96 4d be 51 54 a7 3d f9 86 18 be 50 11 23 3e
       -0.20077085 0.08170379 -0.14895238 0.15924573
0003b0 9b 39 38 be c8 7f b4 3d 85 32 5e be f5 40 4f be
       -0.17990725 0.08813435 -0.21698959 -0.20239623
0003c0 af 69 51 bc ef 11 21 bd 05 4d 23 be ce 6d ca be
       -0.012781545 -0.039323743 -0.1594735 -0.395369
0003d0 79 d5 89 3d 88 2c 48 be 0e 0c fd 3c b9 a3 9d bc
       0.0673017 -0.19548237 0.030889537 -0.019243108
0003e0 a2 01 5d bc cd 60 24 3e d5 8d f7 3d b0 76 88 3d
       -0.013489159 0.16052552 0.12087599 0.06663263
0003f0 0d 66 ac 3e b6 01 0c 3e cb 24 c1 3d 7c 63 aa 3c
       0.3367161 0.13672528 0.09430846 0.020799391

lstm.lstm.bias_ih_l0 f4 [48]
000000 38 20 9e 3e 79 24 eb bd e1 a6 90 be 9c db 3b 3e
       0.30883956 -0.11481566 -0.28252319 0.18345493
000010 2e c4 66 bd 64 8a 31 3c d5 80 c8 3d bb 20 0d be
       -0.056339435 0.010836218 0.09790198 -0.13782017
000020 93 83 bb bc ff 08 23 3e 0d 16 99 bd b2 38 0f be
       -0.022889888 0.159214 -0.07474909 -0.13986471
000030 13 c9 09 bc bb a2 1a be fe d9 c6 3d 28 7c d2 3e
       -0.008409756 -0.15101139 0.097095475 0.4111035
000040 8b 36 fe 3c e1 1e 8a 3d 34 9f 7b 3d 04 b9 9e 3c
       0.031031867 0.06744171 0.061431125 0.019375332
000050 02 a7 b2 3e d2 a9 96 bd 9e 9f 60 bc 44 10 df bd
       0.34893042 -0.073566094 -0.013709931 -0.10891774
000060 6d fc 8e 3e 65 bc 0b be ca 79 8f bd 20 ab b1 be
       0.2792696 -0.13646086 -0.07005651 -0.3470087
000070 97 ff 37 3e 31 f0 b5 bd 37 f3 b2 3e 72 7e de 3e
       0.17968594 -0.088837035 0.34951183 0.43455845
000080 8c 6a ae 3e 2c b5 cb 3e 85 ce 85 bc ea 53 21 3e
       0.34065664 0.3978666 -0.016333828 0.15754667
000090 38 b5 36 be 66 e7 17 3e 8a 5c de 3b 2d 65 20 3e
       -0.17842567 0.14834365 0.006785934 0.15663595
0000a0 6d fa 7d be 40 0a 8f bd 2b 10 ca bd d1 6a e2 bc
       -0.24802561 -0.06984377 -0.09866365 -0.027638825
0000b0 92 7f b5 bc e0 cc 2f bd df 06 94 be 44 51 3d 3d
       -0.022155557 -0.042919993 -0.28911492 0.04622008

lstm.lstm.bias_hh_l0 f4 [48]
000000 50 81 70 3e e6 1c 15 3d 00 dc b7 3d 44 3c 51 3c
       0.23486829 0.036404513 0.089775085 0.012770716
000010 24 df 28 be eb 3c bf bd 30 a1 5f bd 92 3e 80 3c
       -0.16491371 -0.09337791 -0.05459708 0.015654836
000020 9a 62 c1 bd 73 43 78 3e da c3 82 3b 3f 73 c6 3d
       -0.09442635 0.2424448 0.0039906325 0.0968995
000030 99 b9 21 3c e0 cd 4b 3e 23 4c 73 be 81 0c 8a bd
       0.00987091 0.19902754 -0.23759513 -0.06740666
000040 39 f1 d2 bb 5f 83 f2 3d fd 4d 92 3e a9 08 bf 3d
       -0.0064374474 0.11841463 0.28575125 0.09327824
000050 55 9d 01 3e ae 35 d6 3c 0c dd 68 be 76 5f 08 3d
       0.12657674 0.026148643 -0.22740573 0.033294164
000060 b0 ed 04 3d e5 45 38 be 86 f3 8c 3d 40 5f da be
       0.03245324 -0.17995413 0.06882386 -0.42650795
000070 8b 39 03 be 03 a0 98 be 86 9d b2 bd b5 17 b6 3d
       -0.1281492 -0.2980958 -0.087214515 0.088912405
000080 b1 c6 8c 3e 50 9f 1a bd 27 23 56 be ed 07 29 be
       0.2749534 -0.03774959 -0.20911847 -0.1650693
000090 26 17 90 3c 06 08 2a be ac 2d 4c 3d 45 52 ab 3e
       0.017589163 -0.16604623 0.049848244 0.33461204
0000a0 13 db 02 be 51 77 96 3e da 0c 27 3e 23 29 78 bd
       -0.12778883 0.29387906 0.16313496 -0.060586106
0000b0 b3 02 18 3e b1 53 e7 3d bb 33 a9 be 0a c7 b2 bd
       0.1484478 0.1129526 -0.3304728 -0.0872937

lstm.lstm.weight_ih_l1 f4 [48, 12]
000000 2d f9 7d be 48 b3 89 be 62 2c 86 3e 50 b4 44 3e
       -0.24802084 -0.26894593 0.26205736 0.19209409
000010 fd fe ca 3c 29 83 48 3e 5c 54 a4 3e 5d 27 c6 3d
       0.024779791 0.19581284 0.3209561 0.09675477
000020 6f 06 80 bd 21 44 3c 3e 3c 62 31 be 61 6d 3d 3d
       -0.06251227 0.18385364 -0.1732263 0.04624689
000030 54 f0 1e be 47 f0 bd bd 65 06 8e 3e 44 79 35 3d
       -0.15521365 -0.09274345 0.27739254 0.0443051
000040 8d dc 1f 3e b3 c9 50 3d 59 03 c0 bd b6 2c 51 be
       0.15611477 0.050973605 -0.093756385 -0.20427212
000050 53 14 35 bd 6c a1 36 3e f3 90 b2 3c c4 b2 4b 3e
       -0.044208836 0.17835015 0.021797633 0.19892412
000060 95 12 70 bd ec 29 c3 be d0 7d 10 3e 25 dc 1d bb
       -0.05861147 -0.3811792 0.14110494 -0.0024087515
000070 22 dc 50 bd 4b d2 0a be d2 10 12 be 35 f8 a5 3d
       -0.050991185 -0.13556783 -0.14264229 0.08103982
000080 9f c6 86 3e 91 9b 23 3e af d8 43 3d 52 ae 21 3e
       0.2632341 0.15977313 0.047814067 0.15789154
000090 76 63 bc be ab d3 08 bd 74 9a 73 be 92 21 bb 3e
       -0.36794633 -0.033404987 -0.23789388 0.3654905
0000a0 f1 f2 e7 3d 88 b3 12 be d9 e7 99 3e bb db 5a bc
       0.11325634 -0.14326298 0.30059698 -0.013358052
0000b0 91 2d d7 bd d8 f7 a5 be 51 2d fc bd c6 d2 b0 3d
       -0.10506738 -0.32415652 -0.12313331 0.08633952
0000c0 2c d8 e0 3e b3 5e 06 3e 63 4e 73 3e 5d 8c 21 bd
       0.43914926 0.13122062 0.23760371 -0.0394405
0000d0 5e fa 23 be db 9f a3 be e7 aa f6 3d d1 2c c4 3e
       -0.16013476 -0.31957898 0.12044316 0.38315442
0000e0 9e 1a bc 3e ce 49 97 3e 93 a7 2b 3e 16 c1 8a bc
       0.36739057 0.29548496 0.16763143 -0.016937774
0000f0 0a d7 a9 3d 0e bc fa bd 13 41 c8 3d 20 9c 0f be
       0.082929686 -0.122429 0.09778037 -0.140244
000100 30 43 35 be 63 f3 13 3e 17 62 96 3c 52 ef ea 3c
       -0.17701411 0.14448313 0.01835732 0.02867857
000110 b5 e7 93 bd 12 e8 71 3e b0 aa 07 be 47 c4 7d be
       -0.07221929 0.23623684 -0.13248706 -0.24781905
000120 1d af 4e 3e 28 46 a9 3e b7 f4 bc bd 77 2d b6 3e
       0.20183988 0.33061337 -0.09226363 0.35581562
000130 ac 8c 8b bd 58 e4 11 3e f8 94 8f be bb 6f 4b be
       -0.068139404 0.14247262 -0.28043342 -0.1986684
000140 48 4e a1 be 23 57 d5 bd f4 3a 93 bc 15 7c 9f bd
       -0.31505036 -0.10417011 -0.017972447 -0.07787339
000150 5d 3a ae 3c 80 00 03 3e f0 4f c1 bb 49 15 7c bd
       0.021268064 0.1279316 -0.005899422 -0.061543737
000160 55 66 1a be db 60 6f be c7 84 54 3e 8c e1 38 be
       -0.15078099 -0.23376791 0.20753776 -0.1805479
000170 72 93 6f be f3 c1 dd bd a7 14 a8 bd 9f 1f 64 3e
       -0.2339609 -0.108280085 -0.08207064 0.22277687
000180 61 f3 b5 be f3 d7 a8 3e 5a 59 4d 3e bb 4c 81 3e
       -0.35537246 0.32977256 0.20053616 0.25253853
000190 77 03 0f 3e a5 89 91 3e b1 0d b5 3d 03 72 c7 3d
       0.13966165 0.28425327 0.08840502 0.09738543
0001a0 95 52 49 be 7d 11 46 be a7 ff 93 3e ab 6c a2 be
       -0.19660409 -0.19342609 0.28905985 -0.31723532
0001b0 9f 41 f5 3d 30 9f 84 be 62 33 cc 3d 65 af d2 bc
       0.11975407 -0.259027 0.09970738 -0.0257184
0001c0 51 14 6e 3c cd c4 59 be 54 00 80 3e 98 94 ce 3e
       0.014531211 -0.2126648 0.2500025 0.40347743
0001d0 44 16 b4 3c 82 27 a6 3e ae ea c8 bc 11 82 84 bd
       0.021983273 0.32452017 -0.024525966 -0.06470121
0001e0 70 e9 99 3d 2e 91 a3 be ca b7 5f 3e 7e 88 07 be
       0.07515228 -0.319467 0.21847454 -0.13235661
0001f0 72 24 5c 3e c5 4a 73 be f8 7e 87 bc 86 30 3e be
       0.21498278 -0.23758991 -0.016540036 -0.18573198
000200 bf 55 95 bd ee f0 36 3e 4c 73 5c be 05 13 45 be
       -0.072917454 0.17865345 -0.21528357 -0.19245537
000210 f8 ab dc 3c 62 72 92 be 3c f1 6c be b5 73 c2 3d
       0.02693747 -0.28602892 -0.23138899 0.094947256
000220 1e 8b a2 bd 0d ef cc be 90 cb ae 3d 63 d6 9e 3e
       -0.07936691 -0.4002613 0.0853492 0.3102294
000230 75 41 63 bd 0f 5b a2 3e 13 56 21 bd 1f 1b a6 3c
       -0.055482347 0.31710097 -0.039388727 0.020276604
000240 ca c3 83 3e c0 61 b8 bd 9e b5 5d 3e 48 58 3e be
       0.25735313 -0.09003019 0.21651313 -0.18588364
000250 b9 34 6e 3e ab 1f f0 3d 83 83 03 3e 10 f4 46 bd
       0.232623 0.1172479 0.12843136 -0.0485726
000260 d5 42 65 be ea bf 50 3e 83 0c 1e be 5c d0 3b 3e
       -0.22388776 0.2038571 -0.1543446 0.18341202
000270 d3 d4 7b bd e1 40 a3 be 0e 17 e8 3d 7f 6f 9c bd
       -0.061482262 -0.31885436 0.11332522 -0.07638454
000280 d5 e1 53 3d a8 76 0d 3e 91 a1 c4 ba 19 95 af 3e
       0.051729042 0.13814795 -0.0015001764 0.3429344
000290 5c b7 b4 3d c2 e8 a8 3d 78 05 05 be f9 a0 83 be
       0.088240355 0.0824752 -0.12990367 -0.2570875
0002a0 9c 43 2a bd 80 78 c5 3d 54 83 65 3e 24 4e 38 bd
       -0.041568384 0.09642124 0.22413379 -0.044996396
0002b0 78 6c 31 3e 5e e5 e0 bc 7b 0f 02 3e e9 64 8b 3e
       0.17326534 -0.02745312 0.12701218 0.27225426
0002c0 93 2e 12 3c d6 76 b7 bc 77 e8 09 3c 0d ec 5d 3d
       0.008922237 -0.022395533 0.00841724 0.054180194
0002d0 a8 29 8a 3c 72 f8 17 3e 5e 98 34 be b6 9a e2 bd
       0.016865566 0.14840868 -0.17636248 -0.11064665
0002e0 39 83 1a 3e a4 12 d3 3e 87 74 12 bc 8c 14 61 be
       0.1508912 0.4122516 -0.008938915 -0.21980494
0002f0 fd c3 d5 bd 51 63 55 be 9b 97 62 3e 9d 1c c0 be
       -0.104377724 -0.20838667 0.22128145 -0.3752183
000300 71 26 08 be 2d bd a8 be f1 44 5c 3d ae dc 27 3a
       -0.13295914 -0.3295683 0.053776685 0.0006403428
000310 c0 b2 64 be 6f 6e 58 3d b4 60 8b 3e 6f 9f 1b 3d
       -0.22333813 0.052839693 0.27222216 0.037993845
000320 15 b5 69 3e b7 58 9e 3e 16 95 38 bd 38 b4 6d 3e
       0.22822984 0.3092706 -0.045064054 0.23213279
000330 8a f4 76 3e 82 2a 9d be 3c d4 87 3d 75 8e 85 be
       0.24116722 -0.30696493 0.06632277 -0.2608525
000340 af 57 27 be 1e f9 8c 3d 18 a5 1d 3d 4d 49 7d 3e
       -0.16342042 0.06883453 0.038487524 0.24734993
000350 82 43 75 be 93 0f 00 3c b0 59 96 bc 41 1a eb bd
       -0.23951533 0.007816213 -0.018353313 -0.11479617
000360 25 42 17 3d 7c b2 8e 3e bd be 65 bd a2 28 90 bd
       0.036928315 0.27870548 -0.056090105 -0.07039
000370 9c d2 20 be d5 01 a2 3e 59 78 2b 3d 6c f6 b1 be
       -0.15705341 0.31642023 0.04186282 -0.34758317
000380 38 39 dc 3d 0f 35 59 be 31 98 36 3c ad b6 cd 3d
       0.10753101 -0.21211646 0.011144684 0.10044608
000390 3c 47 09 3e 15 07 38 3e 98 9d c4 3d 20 d4 53 be
       0.1340608 0.17971452 0.09600371 -0.20686388
0003a0 bc ee 89 be 1f 5d 8f be c5 ff 83 bc 53 2a b2 bd
       -0.26939952 -0.28000733 -0.016113171 -0.08699479
0003b0 ba a5 2a be 03 9f 48 be b0 16 75 3e 7e a3 24 be
       -0.16664782 -0.19591908 0.23934436 -0.16077992
0003c0 a3 08 6c bd c3 72 b0 3e 0a 6f 06 be ce c2 dd 3d
       -0.057625424 0.34462556 -0.13128296 0.10828172
0003d0 ae 37 a2 bb 44 7b de bd db cb 77 3d 99 db a0 be
       -0.004950485 -0.10863355 0.060497146 -0.3141754
0003e0 14 f7 96 be df 19 c6 3d ab aa 4f bd ac e2 a0 be
       -0.2948538 0.09672903 -0.05069987 -0.31422937
0003f0 02 88 00 be 0b 54 5d be 35 27 82 be 71 f9 a2 be
       -0.12551883 -0.21614091 -0.25420538 -0.31830934

lstm.lstm.weight_hh_l1 f4 [48, 12]
000000 f8 7f 41 be 33 68 8a be 5d 0a e1 3d 66 40 7a be
       -0.18896472 -0.27032623 0.10988305 -0.24438629
000010 3d d9 26 be 26 fe 96 bd 12 e5 21 3e 79 8b a1 be
       -0.16293807 -0.07372694 0.1581004 -0.31551722
000020 be eb 53 3d 20 ce 13 be fd e7 ee bd 6b dd 3d 3e
       0.051738493 -0.14434099 -0.11665342 0.18541496
000030 b5 3d c0 3c 55 13 eb 3d b2 98 c8 3d 26 0b 48 3e
       0.023466924 0.11478297 0.09794749 0.19535503
000040 b0 c0 9f 3c 27 0c 28 3e 3d b1 26 be 84 21 19 3e
       0.01950106 0.16410886 -0.16278549 0.14954191
000050 b9 a0 c6 bd e0 a7 12 3e bc f2 66 3d e8 fb 28 3d
       -0.09698624 0.14321852 0.056383833 0.04125586
000060 e4 59 c8 be 71 0f 57 3d 89 37 d9 be 8b 3f fa 3d
       -0.3913108 0.05250496 -0.42425182 0.12219151
000070 81 f6 0e be aa 18 a4 be be ff 7d bd 7f 0e 8f be
       -0.13961221 -0.32050067 -0.062011473 -0.27940747
000080 7e 62 a8 3e 87 99 c8 be 52 58 b4 3e ae fe 9a be
       0.32887644 -0.39179632 0.35223633 -0.3027243
000090 c7 b0 21 3e 67 c8 b5 bd bb 4b 88 3e b4 bb 86 3d
       0.15790091 -0.08876114 0.26620278 0.0657877
0000a0 af db ac bd 3a 55 bf bd f0 cb 68 be 19 a0 e5 3d
       -0.08440339 -0.093424276 -0.22734046 0.11212177
0000b0 af 4f a7 be ee b8 92 3d c3 bf ca 3d b8 8e 24 be
       -0.3267798 0.07164179 0.09899857 -0.16070068
0000c0 7b 99 b2 bd ff 36 60 be 71 03 bd be 83 83 e4 3e
       -0.0872068 -0.2189598 -0.36916688 0.44631585
0000d0 a7 57 9b 3e 86 63 cf bd e9 8a d5 bd b1 6f 8e 3d
       0.3034031 -0.101264045 -0.10426886 0.06954897
0000e0 e7 84 e3 bd ce b2 59 be a3 82 8e 3e ee 63 7b bd
       -0.111093335 -0.21259615 0.27834043 -0.061374597
0000f0 1b 29 04 be ef 90 fe bd e4 26 5c be 3c 31 06 be
       -0.12906305 -0.12429988 -0.2149921 -0.13104719
000100 49 b7 03 bc 38 3b 5f 3c 7b 2a 0b 3e 69 eb 83 be
       -0.008039304 0.013624959 0.13590424 -0.2576554
000110 65 00 88 3d 2e 65 6c 3e 86 68 80 3d bf 3c ad be
       0.066407 0.23085472 0.06269936 -0.33835408
000120 e0 4a 9f bd 75 50 6b 3e c1 a6 8e 3e 68 dd ef 3c
       -0.07777953 0.2297991 0.27861598 0.02928038
000130 04 7c 32 3e 3c f5 d8 bd 15 a0 a4 bd 9f 49 eb 3d
       0.1743012 -0.1059365 -0.08038346 0.114886515
000140 3b ae 83 3d 9f 53 8e 3e c5 13 05 be 11 49 8e 3e
       0.06429716 0.27798173 -0.12995823 0.2779012
000150 83 20 5d 3d 20 dc c8 bb fa f5 11 3e a0 37 6e 3e
       0.053986084 -0.0061297566 0.14253989 0.23263407
000160 52 43 85 bd fc 3d d3 bd 39 04 18 be 33 ca 67 3e
       -0.06506981 -0.10314557 -0.14845361 0.22635727
000170 f6 de 78 3e d7 c7 4f be 1e 2f 8c 3e 24 bf 39 3d
       0.24303803 -0.20291077 0.27379698 0.0453483
000180 5d 91 d1 3e b3 ee 86 3e ee e4 bf bd b7 35 b3 be
       0.40931216 0.26353988 -0.09369837 -0.3500192
000190 79 58 98 be 44 2f 4d be d1 43 f1 3d 08 46 86 bd
       -0.29755 -0.20037562 0.11780513 -0.06556326
0001a0 c1 ae 9f 3d e3 0c b3 3e eb 0b 02 3d 1e 0d 2e 3d
       0.077970035 0.3497077 0.031749647 0.04249298
0001b0 31 c7 c5 be 5b 20 94 be 6b 7f 13 3e 7d c6 ab 3e
       -0.38628533 -0.28930935 0.14404075 0.33549872
0001c0 5a 39 b0 3e 24 d7 26 3e 73 e3 0d bd f9 e0 6f 3b
       0.34418756 0.16293007 -0.03464074 0.00366026
0001d0 f8 fb ed 3d 65 f3 9b 3d eb 72 b3 bd 48 35 b8 be
       0.11620325 0.07614783 -0.08762153 -0.3597815
0001e0 d3 92 95 bc 25 0d 19 3e 71 53 5d 3d 99 75 ca bd
       -0.018258488 0.1494642 0.054034654 -0.09885711
0001f0 d1 2b 8b 3d 26 90 95 3d 22 b6 39 3d 67 7b 39 be
       0.06795467 0.07302885 0.04533971 -0.1811348
000200 f8 b8 76 be 77 03 07 be c7 20 0f be f1 73 25 be
       -0.24093997 -0.13184915 -0.13977347 -0.1615751
000210 be 32 32 be fd cc 86 be 99 5b 02 3d d1 f9 19 be
       -0.17402169 -0.2632827 0.031825636 -0.15036704
000220 c6 98 a5 bd f7 29 04 be 8b 32 9c 3e 29 04 20 be
       -0.0808578 -0.12906633 0.3050731 -0.15626587
000230 c2 28 1f 3d 01 54 bc be dc e8 a5 3e ea f6 2d be
       0.03885723 -0.3678284 0.3240422 -0.16988721
000240 61 65 e8 3d 1a a3 96 bd 65 89 16 3e 9d a7 b4 3d
       0.113474615 -0.07355328 0.1470085 0.08821032
000250 ce d5 14 3e 4b 83 fa bd 97 ac ee 3d d8 14 a1 be
       0.14534685 -0.122320734 0.11654013 -0.31461215
000260 63 d5 be bd 19 b2 1f 3d 84 a0 44 be 1b 2f e9 bd
       -0.09318044 0.038988207 -0.19201857 -0.11385938
000270 59 8f a6 3d d8 71 d9 bd a1 6e 89 be 87 61 81 be
       0.0813281 -0.10617417 -0.26842216 -0.2526972
000280 86 6c b7 3d 28 5d 26 3e 12 6a 02 bd 07 61 85 3c
       0.08956246 0.16246474 -0.031839438 0.016281618
000290 40 84 35 be ce 32 96 be 2e e9 fb bd ec 84 35 be
       -0.1772623 -0.29335636 -0.12300335 -0.17726487
0002a0 6c c4 93 be c3 58 bc be 1a c2 92 be ae ca 9c bd
       -0.28860795 -0.3678647 -0.28663713 -0.076558456
0002b0 02 27 f1 bd 54 79 42 be ee df 88 3e 44 93 a9 bd
       -0.11775018 -0.18991596 0.26733345 -0.08280042
0002c0 49 17 e4 3e 58 b7 b7 be 56 86 b7 3d 8a 2a ce 3d
       0.44549015 -0.35882068 0.089611694 0.100667074
0002d0 1b 8b 33 bc 1f 56 a4 3c bd 2d 21 3d 11 6a 97 be
       -0.010958458 0.020060597 0.03935026 -0.2957311
0002e0 a6 6f b1 be 53 fe 2e be b4 32 b0 bc 0b de 95 3e
       -0.34655493 -0.17089204 -0.021508552 0.29270968
0002f0 2a 1c 8d 3d 6f 0a 0a be 73 b9 11 be 98 c7 c2 ba
       0.068901375 -0.13480543 -0.142309 -0.0014860509
000300 5e 6e 89 be 13 9d d0 3d 23 7f 11 bd e5 80 9f 3e
       -0.26842016 0.101862095 -0.035521638 0.31153026
000310 82 b3 d8 3e 80 4a 52 be 4e 59 8e be 13 93 d6 3d
       0.42324454 -0.20536232 -0.2780251 0.10477271
000320 13 a7 bc 3d 0b 3f a1 be 0f ca fe bd 8d c5 2e be
       0.092115544 -0.3149341 -0.12440883 -0.17067547
000330 16 d4 37 3e 1d 17 61 be 82 20 d8 3d 06 77 85 3c
       0.17951998 -0.21981473 0.105530754 0.016292106
000340 2d eb 87 3d 9c bb 0d 3e 27 b6 68 3e 26 e0 89 be
       0.06636653 0.13841099 0.22725736 -0.26928824
000350 2a f6 d8 3d 99 fe c8 3d 34 83 e6 bb 35 58 a7 be
       0.10593827 0.09814186 -0.0070346836 -0.32684484
000360 bf 18 4f bd cf 7d 12 bd 9a f8 56 3e 35 f2 1b be
       -0.05056071 -0.03576451 0.20993271 -0.15229113
000370 72 75 af 3d 1d 54 95 bd c6 35 83 3e 2a b7 90 3e
       0.08567323 -0.07291434 0.25626963 0.28264743
000380 ed 6a 4b be 56 af f5 3d 0e 16 a7 be 7d 29 66 bd
       -0.19865008 0.11996333 -0.32634014 -0.05619191
000390 20 7e 85 3d e6 60 a9 be 3a 6a 2e 3e f3 a1 8a 3d
       0.06518197 -0.3308174 0.1703271 0.067691706
0003a0 ac b7 5c 3e 99 3b 9a be 19 51 29 3e de c6 4c be
       0.2155444 -0.30123594 0.16534843 -0.19997737
0003b0 aa 17 3d be 38 19 f0 3d 8a 54 c6 3d ba 35 5e be
       -0.18466058 0.1172356 0.09684093 -0.21700183
0003c0 7f c7 8c 3d b2 3a 50 3d e4 e1 0d be 61 16 ee bd
       0.06873988 0.050837226 -0.13855702 -0.11625362
0003d0 61 39 92 bd 77 92 9c 3e a2 9d da bd 6f 9f 95 3e
       -0.071398504 0.30580494 -0.10674597 0.292232
0003e0 c2 85 ca be 58 2d a2 bd e7 71 a0 be 48 1d 8c bd
       -0.39555174 -0.07918805 -0.313369 -0.068415225
0003f0 9b e2 02 3e 62 29 f5 b9 02 ff 1a 3e cb 50 f1 3d
       0.12781756 -0.00046760874 0.1513634 0.11782988

lstm.lstm.bias_ih_l1 f4 [48]
000000 f3 f9 d5 bd b7 ca 1a 3e 0b fb e4 3e 47 1f f3 bd
       -0.10448065 0.15116392 0.4472278 -0.118712
000010 21 35 23 3e ec 42 89 bd 16 1b 50 3e f3 b2 4a 3e
       0.15938236 -0.067022175 0.20322832 0.19794826
000020 80 8b 8d bd f4 2c dd 3d 89 4c 46 3e 61 4a 1c 3e
       -0.06911373 0.1079959 0.19365133 0.15262748
000030 26 e3 8a 3d dd 45 30 3d e1 b3 34 3e 49 cc 06 3e
       0.067816064 0.043035377 0.17646743 0.13163866
000040 80 f7 c6 3e 20 35 a2 3e 64 bc 7a be 04 95 0f be
       0.38860703 0.31681156 -0.24485928 -0.14021689
000050 96 ae ce be 92 85 72 3e 69 fc 65 be ce c4 81 3e
       -0.40367573 0.23683766 -0.22459568 0.25345463
000060 96 59 26 be 49 37 1b be 3d ab 0d be d4 36 8a 3b
       -0.16245112 -0.15157808 -0.13834853 0.004217962
000070 b7 9d 1b 3e c9 58 0b 3e e4 ad 51 bd a3 ea 78 be
       0.15196882 0.13608088 -0.051191226 -0.24308257
000080 9b 65 2d 3e 4e 70 9e be d6 c9 1f 3e 81 01 5e be
       0.1693329 -0.30945057 0.15604338 -0.21680261
000090 99 52 87 be 5d 5b 43 be 72 2b 56 3e 6d dc 0d 3e
       -0.26430205 -0.19077821 0.2091501 0.13853617
0000a0 10 97 82 3e 9c 4b 41 be 38 12 0b 3e e8 08 9c bd
       0.25505877 -0.18876499 0.13581169 -0.07618886
0000b0 d7 2a 04 be 6a 3b 30 bd 5a ad 93 bd 0d a8 58 3e
       -0.12906967 -0.04302541 -0.072107986 0.21157856

lstm.lstm.bias_hh_l1 f4 [48]
000000 3d f8 90 3d 97 ba 98 3d 72 f6 95 bd 80 54 c0 be
       0.07078598 0.07457464 -0.07322396 -0.37564468
000010 a1 e7 96 3e 06 f8 29 3d 52 af 1a 3c c7 4c 5d be
       0.29473594 0.0414963 0.009441214 -0.2161132
000020 19 24 ce be cb 81 d3 3c b6 78 64 be 5c 34 c5 3b
       -0.40261915 0.025818726 -0.22311673 0.0060182046
000030 96 76 42 3e d3 d8 33 3e 0d 7b 57 bd 74 14 75 be
       0.1899055 0.1756318 -0.052607585 -0.23933583
000040 7e 83 d7 3e 3a cb 57 be 71 bd 3e be bc e9 1f be
       0.42092508 -0.21073619 -0.18626954 -0.15616506
000050 ac dd 91 be 4e 22 c2 3e d5 b5 0e 3e 1f 3a 61 bc
       -0.28489435 0.37916797 0.13936551 -0.013746767
000060 46 09 94 be ea 34 b3 be d4 df d3 be d8 6e 22 3e
       -0.28913325 -0.35001308 -0.41381705 0.15862596
000070 49 6b cd 3d 26 0c 0e be 58 fc 74 3e c3 df 9c bd
       0.10030229 -0.13871822 0.23924387 -0.07659867
000080 03 45 37 3e 63 c5 b5 be d2 28 a3 3e 27 16 df be
       0.1789742 -0.35502157 0.3186708 -0.43571588
000090 70 a7 52 3e c7 24 91 3e 21 6f ee 3c bf 5a c8 3d
       0.20571685 0.2834837 0.029105725 0.097829334
0000a0 b6 bd bd bc f1 2f a9 3e a1 94 40 3b 6e 24 69 3e
       -0.02316175 0.3304439 0.0029385465 0.22767803
0000b0 8c 90 27 be de b1 25 be 39 91 a5 3b 06 16 bc 3e
       -0.16363734 -0.16181132 0.0050527123 0.36735553

mlp.fc1.weight f4 [5, 11]
000000 af 79 27 3f 9b 09 4f 3e d5 91 56 3f fa e6 ec bd
       0.6542005 0.20218508 0.8381627 -0.11567493
000010 48 0f fb 3d 41 30 bb 3e ee b2 1d 3f 1f 85 16 be
       0.12258774 0.36560252 0.6160115 -0.14699219
000020 f9 c3 da be 27 95 07 bf b8 58 07 be f6 4b dd 3e
       -0.4272764 -0.52961963 -0.13217437 0.43222016
000030 75 7d 1e be 5b 01 a1 be 83 99 24 3f 28 c0 33 3f
       -0.15477546 -0.31446347 0.6429674 0.7021508
000040 b8 93 75 be 53 ab 02 be 99 b1 6e 3d 41 12 eb 3c
       -0.23982131 -0.12760668 0.05827484 0.028695228
000050 3c 5f ae 3e 27 8d 48 3f 58 bb fe bd e6 b5 97 be
       0.34057033 0.7834038 -0.12438077 -0.29630965
000060 e2 61 40 3f 0e 3b c5 ba 05 d6 3e 3f 8f 62 63 3f
       0.7514936 -0.0015047507 0.7454532 0.88822263
000070 2a c3 c1 be 8a 9f a2 3d 6c 4b 51 be ba 1a 5d 3f
       -0.3784421 0.07940586 -0.20438927 0.86368906
000080 6b 63 c5 3e d0 b4 71 bd 50 da 85 3e c7 54 7c be
       0.38552412 -0.059010327 0.26143122 -0.24641715
000090 e4 64 4e be 81 d6 68 be f3 38 c9 3e d3 56 88 be
       -0.20155674 -0.22738077 0.3930126 -0.26628742
0000a0 59 5b 80 3e 6e ff b1 3e c9 6f 19 3f f7 82 e6 3e
       0.25069693 0.3476519 0.59936196 0.45021793
0000b0 74 3f 19 bf 7a 81 c8 bd bc af 44 bf 47 8e f7 be
       -0.59862447 -0.09790321 -0.7683065 -0.48350736
0000c0 c2 51 2d 3f 5d e9 b4 be 9c 6a 23 3e c7 cf 03 3f
       0.6770288 -0.35334292 0.15958637 0.5148892
0000d0 59 50 04 3f b9 e9 1e bf dc d7 0f 3f
       0.516851 -0.6207538 0.5618875

mlp.fc1.bias f4 [5]
000000 7f e7 19 be b8 a2 82 3e 96 0d c0 3e b7 27 b1 3d
       -0.15029715 0.2551477 0.37510365 0.08650153
000010 51 65 26 3e
       0.16249587

mlp.fc2.weight f4 [12, 5]
000000 a2 d0 b1 3e e3 10 e8 3e e0 1b 1b 3f b6 f0 05 3f
       0.34729487 0.45325384 0.6058941 0.5232042
000010 8f 2e ce be ef 5d e5 3e 33 b7 82 bf 35 cf db 3e
       -0.40269896 0.44798228 -1.0212158 0.42931524
000020 c4 24 23 bf 84 09 85 3f 5f 63 96 bf 03 24 60 be
       -0.63727975 1.0393529 -1.1749076 -0.21888737
000030 8d a4 bf 3e bb c2 6a 3e a4 b7 86 bf 3c c9 73 3f
       0.3743023 0.22925846 -1.0524793 0.95228934
000040 08 20 f1 be 66 24 87 3f 7d 69 f5 be a4 91 32 be
       -0.4709475 1.0557983 -0.47932044 -0.1743837
000050 95 3b 55 3e 52 2c f2 3e 6b 76 62 bf b2 ec d6 3e
       0.2082351 0.4729944 -0.8846194 0.4197746
000060 7d 97 40 3f 91 8e 0a be 7b 31 43 bf ae 24 1b bf
       0.7523115 -0.13530947 -0.76247376 -0.60602844
000070 72 5c 4c bf 71 2f d4 be 33 97 2b 3f 0e ef 86 3f
       -0.7982856 -0.41442445 0.67027587 1.0541704
000080 d0 b2 e0 be 70 07 53 bf c5 83 41 bf a7 f6 49 bf
       -0.43886423 -0.82433224 -0.7559169 -0.78891987
000090 33 31 a8 bd 0a 53 a4 3c 29 90 c3 3e 20 7e 62 bf
       -0.08212509 0.020059127 0.38195923 -0.884737
0000a0 b2 ff 5a 3f bd ab af 3f 0f 37 c4 3d be a7 6e 3f
       0.8554641 1.3724285 0.09580814 0.93224704
0000b0 54 d8 6f be 69 a5 29 bf 55 ba 4f 3f d3 c9 7f 3f
       -0.23422366 -0.6626802 0.81143695 0.99917334
0000c0 0d 25 ff 3e 7d a1 fe be 8f ec a8 be fb 09 44 3e
       0.49832955 -0.4973258 -0.3299298 0.19144432
0000d0 de a0 af 3e b6 35 2e 3d 72 0c 94 3f c0 a9 e7 bc
       0.3430242 0.04253169 1.1566298 -0.028279185
0000e0 4e fd 29 bc b2 1b 6e bf 60 f8 b0 be 5a d0 82 bf
       -0.010375334 -0.9301101 -0.34564495 -1.0219834

mlp.fc2.bias f4 [12]
000000 85 4a b1 3d 52 e1 b3 be 97 58 de 3d 94 47 8b 3d
       0.086567916 -0.35132843 0.10856741 0.06800762
000010 0f 5b 3d be 7e 88 27 3f 32 b2 b5 3e 2c 41 15 3f
       -0.18491767 0.65442646 0.35487515 0.5830257
000020 8c b5 d5 3c b9 c7 3e 3c d4 ef c0 3c 18 3c de bd
       0.026087545 0.011644297 0.023551859 -0.10851306

mdn.pi.weight f4 [5, 24]
000000 f9 44 c5 bd b0 75 dc bd 9a 73 23 be bd 62 22 3c
       -0.09632296 -0.107646346 -0.15962067 0.009911236
000010 94 d5 15 3e 6f 27 a5 bd ff 1a 37 3c 1d aa 36 bd
       0.14632255 -0.08064162 0.01117587 -0.044595826
000020 ff 8b 9d ba e8 d2 01 be e3 bb 1c 3d 9e 09 db bd
       -0.0012019872 -0.1267811 0.03826512 -0.10695194
000030 24 de 14 39 8b 0c 15 bd 79 5b 50 bd 49 c7 23 3e
       0.00014197134 -0.036388915 -0.050868485 0.1599399
000040 5a dc 9d bd ed 81 0a 3d e3 ec 90 3e af cb cb bb
       -0.07708044 0.033815313 0.2830573 -0.0062193493
000050 1b 3a 6c 3d f5 f0 28 3d 99 ec 8e 3d f3 fb 12 ba
       0.0576726 0.04124542 0.06978721 -0.00056070014
000060 f3 b6 28 bd a5 d3 7f bd 8a 9a 75 bd 79 e5 69 bc
       -0.0411901 -0.0624577 -0.059961833 -0.014275902
000070 18 cc 45 3d ef 45 d8 bc f6 86 b2 3b 41 b2 01 bd
       0.048290342 -0.026400534 0.0054482175 -0.031664137
000080 05 f7 12 3a 4c 58 62 bd 0a e7 ca 3c 81 28 21 bc
       0.0005606267 -0.055259988 0.024768371 -0.009836317
000090 21 b1 33 3d 15 ef 82 3d 31 e0 66 3d 33 c3 67 3d
       0.043870095 0.063932575 0.05636615 0.05658264
0000a0 18 bd 18 3e b1 de c1 3c c5 59 04 bd 86 e9 32 3e
       0.14915884 0.023665758 -0.032312173 0.17471895
0000b0 dc 80 30 3e 93 11 8f bd 5d d9 80 bd eb 19 d6 b9
       0.17236656 -0.06985774 -0.06291459 -0.0004083657
0000c0 f6 5c 67 bd 5f 52 8b bc 25 f4 c5 bd 75 62 e0 3c
       -0.05648514 -0.017007051 -0.096657075 0.027390698
0000d0 84 7d 63 3d 2e ba 5b bd 8d 18 1f bc 42 97 6c bc
       0.055539623 -0.05364435 -0.009710443 -0.01444036
0000e0 88 7a 78 3b d6 2e 02 be 01 1d 9b 3b 46 c9 c6 bc
       0.0037914831 -0.12713179 0.004733682 -0.024265897
0000f0 00 82 4a 3d 00 2d 68 37 c4 31 43 3e 75 59 8b 3c
       0.049440384 1.3838755e-05 0.19061953 0.01701043
000100 33 86 45 bd 52 0c 18 bd 04 a1 1d be 26 be e4 3d
       -0.048223685 -0.037121125 -0.15393454 0.111690804
000110 22 d8 07 3e 68 19 38 3e e6 d4 88 3d 89 a0 d6 b9
       0.13266042 0.17978442 0.06681232 -0.0004093687
000120 ca cc d2 3d c8 af 27 3e f6 6e 4f 3e ce b1 24 bb
       0.10292967 0.16375649 0.20257172 -0.0025130394
000130 b1 79 5c be 72 d7 e4 3d c6 0c 0a bc 97 39 45 3d
       -0.21530797 0.111739054 -0.008425897 0.048150625
000140 2c dc 96 bb 24 a1 20 3e 32 e2 f2 bc 23 f3 4b 3e
       -0.0046038833 0.1568647 -0.029648874 0.19916968
000150 3b 32 29 be 6e 47 1d bc 94 22 02 be ec 4b 0b be
       -0.16523068 -0.00959955 -0.12708503 -0.1360318
000160 06 4b 4c be 26 e3 6d bc 08 63 de bd 65 c2 f1 bd
       -0.19950494 -0.014519488 -0.108587325 -0.11804656
000170 66 ac 0a be 7c a2 7d be 67 69 5a bd f0 ee 58 3a
       -0.13542327 -0.24769014 -0.053323176 0.00082753506
000180 e1 e7 bf bc 0e d6 45 bc 59 39 53 bc 48 1a 8c ba
       -0.023425998 -0.01207496 -0.012892091 -0.0010688985
000190 f0 9f 8d 3b b4 c1 0b bd b2 1c 13 3c b1 e6 ad bc
       0.0043220446 -0.034120277 0.008979009 -0.021228166
0001a0 ef ab 4c 3b c9 aa 90 bc 51 c4 be 3c e1 3a 06 bd
       0.003123041 -0.017659562 0.02328697 -0.032770995
0001b0 7e 1f 6e 3d 48 4a 06 3d 3e 0c 96 3c 82 dd 1d 3d
       0.058135502 0.032785684 0.018316384 0.038541324
0001c0 c0 4a d0 bc 55 46 88 ba ff ff 1b 3d fb 7c 8a 3d
       -0.025426269 -0.0010396937 0.038085934 0.067621194
0001d0 ef 1d 26 bd a5 27 18 3c a6 22 00 3d 8c 08 af 38
       -0.04055589 0.009286796 0.031283043 8.346242e-05

mdn.pi.bias f4 [5]
000000 14 e3 71 3e 91 83 bd bd a7 14 15 bc ba 60 82 be
       0.2362178 -0.0925361 -0.009099162 -0.25464422
000010 5a 6e 15 bc
       -0.009120548

mdn.sigma.weight f4 [5, 24]
000000 c6 aa 5d 3e 02 3d 55 3e 53 e5 1c 3f d6 44 ad 3d
       0.21647176 0.20824054 0.6128742 0.08460395
000010 04 6e 01 bf c4 42 ad 3d 64 bf e0 bc 5d 9d ed 3c
       -0.50558496 0.0846 -0.027435012 0.0290057
000020 b1 61 04 bd d5 bd fb 3e 64 8e 71 be e3 c4 88 3e
       -0.03231973 0.49168268 -0.23589474 0.26712713
000030 7a 0e c7 3d cd 73 c4 3d 26 99 be be 34 d8 f3 bd
       0.09719558 0.095924 -0.37226218 -0.11906472
000040 74 43 24 3e b2 c3 06 be 4f 95 04 bf fe 49 9a be
       0.16041356 -0.1316059 -0.51790327 -0.30134577
000050 01 09 b1 be e4 c2 2d bd cd b4 d6 be a5 03 bd b9
       -0.34577182 -0.04242219 -0.41934815 -0.00036051605
000060 fa 06 4b bc 0c be d0 3e f4 9b 22 3e 87 0d ff 3c
       -0.0123918 0.40769994 0.15879804 0.03113438
000070 67 ed 20 bf 76 ee 3f 3e 58 04 8d bc fd b3 71 3e
       -0.6286225 0.1874331 -0.017213985 0.23603816
000080 6a c3 30 bb 43 86 53 3c a6 f9 4b bc d9 15 ef 3e
       -0.0026971945 0.012910428 -0.012449658 0.46696356
000090 b0 42 57 be 37 59 09 3d d7 84 ab 3d 90 92 95 be
       -0.21021533 0.033532348 0.083749466 -0.2921338
0000a0 8b 81 c0 3d 31 c4 1b ba d6 21 6a be 6b 5a e0 be
       0.09399708 -0.00059420156 -0.2286447 -0.43818983
0000b0 2e 49 8a be c7 7a 27 bd bf 0d 81 be d9 c1 53 3b
       -0.27008957 -0.040888574 -0.252058 0.0032311587
0000c0 9a d0 81 3e da 72 3f bd ad 89 9e 3e 84 98 57 3d
       0.25354463 -0.04674039 0.30964413 0.052635685
0000d0 15 2b 0c bf d6 28 aa 3e e9 a2 02 bd 12 c5 5e 3e
       -0.5475324 0.3323428 -0.031893644 0.21754864
0000e0 ec 31 bd 3c 6b 63 8b 3e 99 6e c2 bd a2 6c cc 3e
       0.023095094 0.27224287 -0.09493751 0.3992663
0000f0 a3 10 00 bf 9b 03 b3 bc 2d e3 15 3e d6 f2 a2 be
       -0.50025386 -0.021852305 0.14637442 -0.31825894
000100 4a ec 45 bf 8b bc ee bc 95 6c e3 bd 11 ff 8b 3d
       -0.77313673 -0.029142639 -0.11104695 0.068357594
000110 98 c4 13 3d c6 c9 cc be 76 e1 d5 bd 04 ff a4 b8
       0.03607616 -0.3999769 -0.10443394 -7.86763e-05
000120 05 1e e6 3c 43 a9 4b 3d 42 85 a2 3d 5f 1b 7f 3c
       0.028090486 0.049721967 0.07935573 0.015570491
000130 f5 3c 75 bd 71 b2 17 3d 30 61 c8 bb 79 1e e7 3c
       -0.059872586 0.03703541 -0.0061151013 0.028212773
000140 9f ef e7 3b 17 ca 20 3d 96 82 6c 3d 50 d1 95 3d
       0.0070781256 0.039255228 0.057741724 0.07315314
000150 91 24 c8 3d 0f aa 86 bc ee 04 28 bd 8f 67 6c 3d
       0.097725995 -0.016438512 -0.041020326 0.05771595
000160 4b 87 b0 bd e9 34 9d bb 2b e4 47 3c d4 c7 ce bd
       -0.08619555 -0.004797567 0.012200396 -0.10096708
000170 a8 e6 16 be 8a 4a 52 be 75 a6 e4 bc fc 40 fa 3a
       -0.14736426 -0.20536247 -0.027911404 0.0019092853
000180 9b e6 2d 3d 9a ca 63 3e 25 f0 ae 3e 97 7f fd ba
       0.04245625 0.22245255 0.3416759 -0.0019340393
000190 b5 f1 76 be 5c 3a 1b 3e 5d 5d 98 bb a6 58 29 3d
       -0.24115641 0.15158981 -0.0046498016 0.041344307
0001a0 ca 87 53 bc ad fc b5 3d b8 a7 f1 bc 35 de 5a 3e
       -0.012910793 0.08886085 -0.02949892 0.21373828
0001b0 21 ad b9 bd 49 24 73 bb 79 ae de bd 61 a3 40 be
       -0.09066225 -0.0037100485 -0.10873122 -0.18812324
0001c0 8e c7 db bc d0 75 0b bd a1 01 7c be 05 63 90 be
       -0.026828554 -0.0340479 -0.24609996 -0.28200546
0001d0 f8 22 bc be a3 c0 41 be a0 3b a6 bd e9 d4 9c 3d
       -0.3674543 -0.18921141 -0.08116841 0.07657797

mdn.sigma.bias f4 [5]
000000 1e 16 43 3f f9 18 49 3f af 43 4e 3f a3 d1 44 3f
       0.76205623 0.7855373 0.80572027 0.7688238
000010 57 57 39 3f
       0.72398895

mdn.mu.weight f4 [5, 24]
000000 f9 cb ef bd ef 72 65 3e 86 b9 47 3d 0b 81 d2 3c
       -0.117088266 0.22407125 0.048760913 0.025696298
000010 d6 78 1e be 7e c4 11 3d 6e 74 dd bc 1f fa 2b 3e
       -0.15475783 0.03558778 -0.027033057 0.16794632
000020 54 75 b8 3c fe ed b5 3e bb 6a 8e 3e d5 d8 16 3e
       0.022516884 0.35533136 0.27815804 0.14731152
000030 e9 1a 02 bf 05 84 9c be ae 71 26 3e 1c 9f ee 3d
       -0.5082231 -0.30569473 0.16254303 0.116514415
000040 57 72 2a be 7e 70 60 be 78 ac 1d bd 98 6d 28 3e
       -0.1664518 -0.21917912 -0.038494557 0.16448057
000050 7c 53 53 3e 10 f7 77 3b d6 ef 8a 3e 6d b1 9a 39
       0.20637316 0.003783647 0.27136105 0.0002950536
000060 d9 63 4c 3d 57 7c fa bc 95 a1 e1 3c a1 f7 73 3e
       0.04989991 -0.030576868 0.027542869 0.23824932
000070 3c b8 72 3d 9b b9 4d 3d 7c a1 11 bd 2c 49 20 bd
       0.05925773 0.050225835 -0.035554394 -0.039132282
000080 99 46 dc bc e0 44 a6 3a 56 68 23 bb d2 6b 0b be
       -0.026889132 0.0012685321 -0.0024934015 -0.13615349
000090 7a c9 24 be b4 10 62 be d4 24 87 be 26 c1 cf bc
       -0.16092482 -0.22076684 -0.26395285 -0.025360655
0000a0 20 f1 91 be 56 3a 1e be 1e 22 84 be a5 47 48 bd
       -0.28504276 -0.15451941 -0.2580728 -0.04889645
0000b0 68 59 ad 3d 8d cb 0e be 8d 12 52 3d 67 9d 23 ba
       0.084643185 -0.13944836 0.051287223 -0.00062414113
0000c0 f4 54 02 3d f3 50 8d 3e ba 8c 4e 3d 23 61 21 3e
       0.0318193 0.27600822 0.050427176 0.15759711
0000d0 84 14 94 3e 39 69 70 3e 27 21 0e bd 4f 0b 57 3c
       0.28921902 0.2347764 -0.034699585 0.013125255
0000e0 e2 7c b0 3a f3 c4 c9 3d fc f4 4a 3e 01 a2 53 bb
       0.0013464952 0.09852018 0.19820017 -0.0032292607
0000f0 2f b2 10 3e 9c 72 07 be 56 1a 2e be 0e d4 03 be
       0.14130472 -0.13227314 -0.17002234 -0.12873861
000100 ef 50 b2 be d1 cb 25 be 1d 04 d8 bd ac ff d0 3d
       -0.34827372 -0.16191031 -0.105476595 0.102050155
000110 2f 24 2b bd 07 7b 50 be d6 81 d8 3d d6 ae 01 bb
       -0.041782554 -0.20359431 0.10571639 -0.0019788048
000120 cd e1 14 bd 99 ff 37 be 7e 06 c6 3b be 7f 5c ba
       -0.036348153 -0.17968597 0.0060432544 -0.0008411369
000130 df 81 33 bc fa 62 44 3c 62 af bb 3a 95 96 74 3b
       -0.010956257 0.0119864885 0.0014319236 0.00373212
000140 bb 8a 7a bb f4 fe d7 3b 81 3a 52 bb 48 12 26 3c
       -0.0038229662 0.006591672 -0.0032078328 0.0101361945
000150 0b 26 bd bb e2 95 ca be be 77 0c 3b 78 14 f2 bb
       -0.0057723573 -0.39567477 0.0021433677 -0.007387694
000160 0f e6 09 ba 97 96 0a bc 18 3b e5 3b cd 09 a2 3d
       -0.00052604167 -0.008458755 0.00699557 0.079120256
000170 30 2c a2 bd 95 2b 89 bc e5 6f b9 3b 15 dc ac 3a
       -0.07918584 -0.016744414 0.005659091 0.0013188148
000180 03 57 b6 3c fa 5d 2e 3e ca bb 09 3d 0c 86 07 3d
       0.022258287 0.17028037 0.033626355 0.03308682
000190 36 06 89 bd c3 f2 0f bd 92 f7 f8 bc f5 00 85 3c
       -0.06690638 -0.035143625 -0.030391488 0.016235808
0001a0 f6 9e fb 3b aa 58 03 3d c8 54 5f bb 4c a2 26 3c
       0.0076788617 0.03206698 -0.0034077633 0.0101705305
0001b0 f8 ff a0 be ef a1 f9 3d 35 06 82 3d be 9b ae bd
       -0.3144529 0.121890895 0.0634884 -0.08525799
0001c0 66 ff 74 3d ae 8b b5 bd 26 24 7b bd 08 1d d3 bd
       0.05981388 -0.088645324 -0.06131377 -0.10308272
0001d0 28 d9 ab bc ac e8 bc 3d 8a 54 7f 3d 0b cd 9a bd
       -0.020977572 0.09224066 0.062336482 -0.0755864

mdn.mu.bias f4 [5]
000000 64 e0 ab 3d 84 aa 3e be 81 1d 08 3e fd 5b c2 be
       0.083924085 -0.18619734 0.13292505 -0.37960806
000010 63 5e 9c bc
       -0.019087976
