4. Deep learning part/lstm_model.pth (torch, 45158 bytes, 5 tensors)

lstm.weight_ih_l0 f4 [200, 1]
0	0x3e6ea5cc	0.23305434
1	0xbe6307f3	-0.22171001
2	0xbf0384e7	-0.5137467
3	0xbf01dbc2	-0.5072595
4	0xbfc8a497	-1.5675229
5	0xbf95a4e8	-1.169095
6	0xbe1d37f6	-0.15353379
7	0xbfdd3cb1	-1.7284147
8	0xbdfd6d84	-0.12374404
9	0xbf1413cf	-0.57842726
10	0xbde9a6a2	-0.11408736
11	0xbfa72f15	-1.3061243
12	0xbf6e5f4f	-0.9311418
13	0xc0324557	-2.7854822
14	0xbe885c19	-0.26632765
15	0xbb2fa7ec	-0.002680297
16	0xbf49d654	-0.78842664
17	0xbda9ee3c	-0.08297393
18	0xbf7dcad2	-0.99137604
19	0xbe62d389	-0.22151007
20	0x3f010580	0.5039902
21	0x3f20d213	0.6282055
22	0x3f6c1251	0.9221545
23	0xbeeb368a	-0.45940048
24	0x3f8951d2	1.0728095
25	0xc00fa787	-2.2446
26	0xbfa4c632	-1.2872984
27	0xbf3fac6e	-0.7487248
28	0xbf3b6818	-0.7320571
29	0x3f88fee6	1.0702789
30	0xbddaeaa9	-0.10689289
31	0xbfda9e9a	-1.7079651
32	0xc0178471	-2.3674586
33	0x3eaf5cce	0.34250492
34	0xbe99cfe7	-0.3004143
35	0xbf939716	-1.1530483
36	0xbf338cbc	-0.7013662
37	0xbef18d1e	-0.47177976
38	0xbfc87210	-1.5659809
39	0xc015b3e1	-2.339104
40	0x3e336888	0.17520344
41	0xbf12fa3f	-0.57413095
42	0xbfd34701	-1.6506044
43	0xc00794b7	-2.1184518
44	0x3d8e8efa	0.06960864
45	0xbe6cdf38	-0.23132026
46	0x3e6a159b	0.22859804
47	0x3ef34308	0.47512078
48	0xbff5c9a2	-1.9202158
49	0xbf02d12c	-0.5110042
50	0x3f167eb8	0.5878711
51	0x3f884f50	1.0649204
52	0xc0223a5b	-2.5348117
53	0xbec5d508	-0.38639092
54	0xbf8c9a74	-1.0984635
55	0x3f129f4f	0.57274336
56	0xbfa4d96a	-1.287885
57	0x3f80c517	1.0060147
58	0x3f15608c	0.58350444
59	0xbf0230f6	-0.5085596
60	0x3f7194f4	0.9436791
61	0xbef6d2ba	-0.48207647
62	0xbfba756c	-1.4567084
63	0xbf754cb0	-0.9582014
64	0x3f10dde7	0.56588596
65	0x3f13a9b3	0.57680815
66	0xbf39e342	-0.7261239
67	0xbf952717	-1.1652554
68	0xbe48f021	-0.19622852
69	0x3ede85ad	0.43461362
70	0x3e262859	0.16226329
71	0xbf5f75e4	-0.8728926
72	0x3eb8514c	0.35999525
73	0xbfd09ac8	-1.6297235
74	0x3f006199	0.5014892
75	0xbfe72fda	-1.8061478
76	0xbe67dedc	-0.22643608
77	0xbe8e0509	-0.27738217
78	0xbfa317a2	-1.2741587
79	0x3e2b70c3	0.16742234
80	0x3e4605e8	0.1933819
81	0xbf395a06	-0.7240299
82	0xbf4387ff	-0.7637939
83	0x3f0d0dbe	0.55099094
84	0x3d585e78	0.052824467
85	0x3f3b6ba5	0.7321113
86	0x3f1192d5	0.5686467
87	0xbf7e7bf7	-0.99407905
88	0xbf07d3ec	-0.5305774
89	0xbf68ea98	-0.9098296
90	0x3f19f9c8	0.6014676
91	0x3f6443ba	0.8916584
92	0x3fb45284	1.4087682
93	0xbe497833	-0.19674759
94	0x3f3410b0	0.70337963
95	0xbe53a4fb	-0.20668404
96	0x3d331a35	0.043726165
97	0x3fa3ff3f	1.281227
98	0xbed6a88f	-0.41925475
99	0xbf2d5bbe	-0.6771811
100	0xbfe986b0	-1.8244228
101	0xbefe741d	-0.49697962
102	0x3ee6f276	0.45106858
103	0xbfe721f1	-1.8057233
104	0xbf1f43b7	-0.622127
105	0xc00022ed	-2.0021317
106	0xbf3d0966	-0.73842466
107	0x401056c0	2.2552948
108	0x3fad080b	1.351808
109	0xbfe6e191	-1.8037587
110	0x3ff99c46	1.9500816
111	0x3f76caea	0.9640337
112	0x3f15ff17	0.5859236
113	0xbf6cb35d	-0.92461187
114	0xbfea2ccf	-1.8294924
115	0xbf2705f0	-0.65243435
116	0x400e525d	2.223777
117	0xbf4f2634	-0.8091767
118	0xbe0b1e7e	-0.1358585
119	0x3e4e8e7d	0.20171542
120	0x3fb60b49	1.4222194
121	0x3f82a171	1.0205518
122	0x3ff06ce6	1.8783233
123	0x3ee920cb	0.45532832
124	0x400a8de0	2.1649094
125	0x3f9f849b	1.2462343
126	0xbf3b0e40	-0.7306862
127	0x3f95ca5b	1.1702379
128	0x40024389	2.035372
129	0x3fa9b50b	1.3258375
130	0xbfb8f39e	-1.4449346
131	0x3fba2a0a	1.4544079
132	0xc00433f3	-2.0656707
133	0x3f4fac50	0.81122303
134	0x3fbc4b9e	1.4710577
135	0xbf4f425f	-0.8096065
136	0xbfdc47a9	-1.7209369
137	0x3e10499d	0.14090581
138	0x3fd2faad	1.648275
139	0x3d3b2f7f	0.045699593
140	0xbf08e48a	-0.5347372
141	0x400f0cad	2.2351487
142	0xc032a042	-2.7910314
143	0xbfbf2d66	-1.493573
144	0x40067563	2.1009147
145	0xbcaac517	-0.020845933
146	0xbff22cc5	-1.8919913
147	0xbf179727	-0.59215015
148	0x3f8e3cd0	1.1112309
149	0x3f422e53	0.75851935
150	0xbf1d9a0b	-0.61563176
151	0x3e74ddee	0.23912784
152	0xbe8b6cfc	-0.27231586
153	0xbeca5cd1	-0.39523938
154	0xbfabf9bb	-1.3435587
155	0xbf2f0d83	-0.6837999
156	0xbf1fcb45	-0.6241954
157	0xbf6cbf51	-0.92479426
158	0x3f0f725b	0.5603387
159	0xbef99128	-0.48743558
160	0x3ea00531	0.3125396
161	0xbfb39e04	-1.4032598
162	0xbf8f6232	-1.1201842
163	0xc018f992	-2.3902326
164	0xbe39e018	-0.18151891
165	0xbed09105	-0.4073564
166	0xbf09cd37	-0.5382876
167	0xbdaba7e3	-0.08381631
168	0xbf156c49	-0.58368355
169	0x3ef9dcba	0.48801214
170	0x3e962d07	0.29331228
171	0x3f151e6c	0.58249545
172	0x3f3b0755	0.7305806
173	0xbf0195a7	-0.50618976
174	0x3f761e07	0.9613957
175	0xc0023939	-2.0347426
176	0xbfcc22b6	-1.5948093
177	0xbf3e4b5d	-0.74333745
178	0xbf2536a7	-0.6453652
179	0x3f8b097f	1.0862273
180	0x3d98ca5b	0.07460471
181	0xbf839a58	-1.0281477
182	0xc008de26	-2.1385589
183	0x3dd40f94	0.10354534
184	0xbee2d3f8	-0.44302344
185	0xbeee70d2	-0.4657045
186	0xbf4f0157	-0.8086142
187	0xbec16d88	-0.37778878
188	0xbfbd28b7	-1.477805
189	0xc005922d	-2.0870469
190	0x3e5375df	0.20650433
191	0xbe7a9dd7	-0.24474274
192	0xbf2e3f0d	-0.6806496
193	0xbfde89a1	-1.7385751
194	0x3e9b633c	0.30349147
195	0x3e07148e	0.13191435
196	0x3ec2d11c	0.38050163
197	0x3e803068	0.2503693
198	0xbfecdb64	-1.8504453
199	0xbf424b40	-0.7589607

lstm.weight_hh_l0 f4 [200, 50]
0	0x3e1e189b	0.15439074
1	0xbeb9a355	-0.36257425
2	0xbe7116a9	-0.235438
3	0xc014c567	-2.3245485
4	0xbf253eea	-0.64549124
5	0xbc71c602	-0.014756681
6	0xbf405ea1	-0.7514439
7	0xbfa3bc5e	-1.279186
8	0x3fe7047a	1.8048241
9	0xbf90c61b	-1.1310457
10	0xbedf04e0	-0.43558407
11	0x3f14cf7d	0.581291
12	0x3f9cf173	1.2261184
13	0x3d7784f3	0.060429525
14	0xbf983525	-1.1891218
15	0xbf543ca1	-0.8290501
16	0x3fa875c6	1.3160942
17	0x3e9041e7	0.2817528
18	0x3f484a5a	0.7823845
19	0xbd8f10a0	-0.06985593
20	0xbdafede4	-0.08590296
21	0x3f359d4c	0.7094314
22	0x406e5bd0	3.7243538
23	0xbe7030e7	-0.23456155
24	0xbc90ed5a	-0.017691303
25	0x3f9bc434	1.2169251
26	0xbf2a802d	-0.6660183
27	0x3fe62d21	1.7982522
28	0x3f60d16a	0.8781954
29	0xbf5efc53	-0.87103766
30	0xbf449f0f	-0.76805204
31	0xbf8c6c53	-1.0970558
32	0xbe206708	-0.15664303
33	0xbe830adb	-0.2559422
34	0x4067f9b4	3.6246157
35	0x3f757ad1	0.9589053
36	0xc0695e89	-3.646395
37	0x3d28f373	0.041247796
38	0xbf1328c8	-0.574841
39	0xbf74acd6	-0.95576227
40	0x3f95db11	1.1707479
41	0x4042cb86	3.043672
42	0xbf189af4	-0.5961144
43	0xbf3a01cb	-0.72658986
44	0x3fa20850	1.2658787
45	0xbdbed198	-0.093173206
46	0x3dc94ce2	0.09829117
47	0x3e88ffa9	0.26757553
48	0x3f4ad225	0.79226905
49	0x3f986e2c	1.1908622
50	0xbef83f63	-0.4848586
51	0x3f58bf5e	0.84667003
52	0xbf144848	-0.5792279
53	0xbe36da38	-0.17856681
54	0xbf29b0c5	-0.66285354
55	0x3d06628e	0.032808833
56	0x3f169c8a	0.5883261
57	0xbf92a7ec	-1.1457496
58	0xbeb574dd	-0.35440722
59	0x3f15f0ca	0.5857054
60	0xbf0e31ff	-0.5554504
61	0x3fd45009	1.6586925
62	0x3f1d1c22	0.6137105
63	0xc0099c45	-2.150163
64	0xbf8860c4	-1.065453
65	0x3facad9d	1.3490483
66	0x3dd8be7d	0.10583208
67	0x3ee03882	0.43793112
68	0xbf65bd7b	-0.8974225
69	0x3e95b228	0.29237485
70	0xbca242ce	-0.019807246
71	0xbf4c48b6	-0.7979845
72	0xbf1b58a2	-0.6068212
73	0xbeb33161	-0.3499861
74	0xbdb8f367	-0.090308
75	0xbf553d2e	-0.8329648
76	0x3d845c4c	0.06462917
77	0xbf3c241c	-0.734926
78	0x3f62674a	0.88438857
79	0x3f7730b1	0.9655867
80	0x3e25ba8f	0.16184448
81	0xbfc485f5	-1.535338
82	0x3eba174a	0.36345893
83	0xbecbd1e0	-0.3980856
84	0x3fa3ce87	1.2797402
85	0xbf3b7c14	-0.73236203
86	0xbf5d525a	-0.86453784
87	0x3ddbed9a	0.10738678
88	0xbfa66c0c	-1.3001723
89	0x3e2e383e	0.17013642
90	0xbda7f2cc	-0.08200607
91	0xbdd03bca	-0.10167654
92	0x3f843796	1.0329463
93	0xbf4e2493	-0.8052456
94	0x3eafe099	0.34351042
95	0x3dc46241	0.09589053
96	0x3e8d513f	0.27601048
97	0x3f3eb78e	0.7449883
98	0x3f2993f5	0.6624139
99	0x3f9b7f7d	1.2148281
100	0xbeffc663	-0.49956045
101	0xbcb9d02d	-0.022682274
102	0xbe789f59	-0.24279536
103	0x3fa80c4d	1.3128754
104	0xbf1a4411	-0.6026011
105	0x3f95d3fe	1.170532
106	0xbe1a0efb	-0.15044777
107	0x3f3ecc5b	0.7453057
108	0x3f15b420	0.58477974
109	0x3e34fd84	0.17674834
110	0xbf2d1625	-0.67611915
111	0x3e4f041f	0.20216416
112	0x3ee14f7d	0.44005957
113	0xbfc060c2	-1.5029528
114	0x3f6ba8db	0.9205453
115	0x3f9ab670	1.2086926
116	0xbf1c4d77	-0.610557
117	0xbe27c6d2	-0.16384438
118	0x3f9a615d	1.2060963
119	0x3ebdd7c1	0.3707867
120	0xbfb2fa6e	-1.3982675
121	0xbe307952	-0.1723378
122	0xbf700476	-0.93756807
123	0x3f570d06	0.8400425
124	0xbeb36f87	-0.35046026
125	0xbfb18b5f	-1.3870658
126	0xbf05a431	-0.5220366
127	0x3d30926d	0.043108393
128	0xbeedd362	-0.46450335
129	0xbfc2e03a	-1.5224679
130	0xbf348394	-0.7051327
131	0xbd0a63d4	-0.03378661
132	0x3f6a4563	0.91512126
133	0xbfea2e6d	-1.8295418
134	0xbf89a326	-1.0752914
135	0x3f1c14b8	0.60969114
136	0x3f6cfbc4	0.92571664
137	0x3ee2d97b	0.4430655
138	0x3f8850ce	1.064966
139	0x3de6302e	0.11239658
140	0xbe500c5e	-0.20317218
141	0xc009f856	-2.1557822
142	0x3ff9916d	1.9497505
143	0xbf29af64	-0.6628325
144	0xc0043639	-2.0658095
145	0x3e48d077	0.19610773
146	0xbfda7206	-1.7066047
147	0x3de7aff2	0.11312856
148	0x3f2d85e8	0.6778245
149	0xbf3da6da	-0.7408272
150	0x3f71fbf7	0.9452509
151	0x3f699344	0.91240335
152	0x3fc6078d	1.5471054
153	0x3fb05425	1.3775679
154	0x3d3462d4	0.044039562
155	0x3d9f5184	0.0777922
156	0xbda731a9	-0.08163769
157	0x3e03ce17	0.12871586
158	0xbf6c9861	-0.9242001
159	0x3fb00ce6	1.3753936
160	0xbe10bfc2	-0.1413565
161	0xc01b797a	-2.4292893
162	0xbc10eff6	-0.008846274
163	0x3fc35018	1.5258818
164	0x3e3f768f	0.1869757
165	0xbf4d7abb	-0.80265397
166	0xbf1d46a3	-0.6143591
167	0xbebaef48	-0.36510682
168	0x3f276e87	0.65403026
169	0x3dca2a80	0.098713875
170	0x3e985d91	0.29758886
171	0xbf28fb70	-0.66008663
172	0xbfe6c561	-1.8028985
173	0xbea8bd37	-0.3295686
174	0xbf8d279f	-1.1027716
175	0xbefd98cf	-0.49530646
176	0x3f26f69f	0.65220064
177	0xbf66bbdf	-0.9013042
178	0xbf420c33	-0.75799865
179	0xbe9bd111	-0.30432943
180	0xbefff0fa	-0.49988538
181	0x3e8e6a77	0.278156
182	0xbe71e425	-0.23622186
183	0xbf50648d	-0.8140343
184	0x3e88bc28	0.26706052
185	0x3fe12885	1.759049
186	0x3f973db2	1.1815703
187	0xbf59c397	-0.8506407
188	0xbe269108	-0.16266263
189	0x3f59fef4	0.8515465
190	0x3da41022	0.080108896
191	0xbf4d4be3	-0.8019392
192	0x3f5e2a2c	0.867831
193	0x3fac21ac	1.3447776
194	0xbf021608	-0.50814867
195	0xc011c976	-2.2779212
196	0x3e78b1c2	0.24286559
197	0xbdce106e	-0.100617275
198	0xbf2a5371	-0.6653357
199	0xc0258928	-2.5864964
200	0x3fc5947c	1.5435939
201	0xbfcb7c8c	-1.5897384
202	0x400970d1	2.1475108
203	0x3f91ca3f	1.1389846
204	0xbde91e95	-0.11382786
205	0x3f9e5a6f	1.2371348
206	0xbecbbf41	-0.39794353
207	0xbf6a97a1	-0.9163762
208	0xbfaa7dfe	-1.33197
209	0x3f78141f	0.969057
210	0xbf70a860	-0.9400692
211	0x3fb5161a	1.414737
212	0x3fbe256c	1.485517
213	0x3e8a80de	0.27051443
214	0x3f3976e1	0.7244702
215	0xbf1d43b5	-0.6143144
216	0x3e8af782	0.27141958
217	0xbd8300d3	-0.063966416
218	0x3fc1a6b6	1.5129001
219	0x3f39967b	0.7249524
220	0xbf80e53d	-1.0069958
221	0x3f758d19	0.9591842
222	0xbf8611fc	-1.0474238
223	0xbda6e9bb	-0.08150049
224	0xbf9bcfff	-1.217285
225	0x3fa6cd29	1.303136
226	0xbf0015fd	-0.5003355
227	0x3e19fa04	0.1503678
228	0xbde32146	-0.11090331
229	0x3cc25a9e	0.02372485
230	0x3f6cd0fa	0.9250637
231	0xbf940b82	-1.1566012
232	0xbe63d71a	-0.22250023
233	0xbf18b84e	-0.59656227
234	0x3fa4420a	1.2832654
235	0x3fd71a54	1.680491
236	0x3f573419	0.8406387
237	0xbe211fbe	-0.15734765
238	0xbecb0d24	-0.39658463
239	0xbe2ff08a	-0.17181602
240	0x402417d1	2.5639536
241	0x3f85b7a9	1.0446674
242	0xbbcb7fab	-0.0062102876
243	0x3dca56f3	0.098798655
244	0x3e912b71	0.28353456
245	0xbf842c90	-1.0326099
246	0x4005187d	2.0796196
247	0x400157e0	2.0209885
248	0x3d467916	0.04845532
249	0xbeebeac4	-0.4607755
250	0x4010aeb6	2.2606635
251	0x3ea23ee5	0.3168861
252	0x3fad99f2	1.3562605
253	0x3f054f58	0.52074194
254	0x3f1cb5f4	0.6121514
255	0x3cab5abc	0.020917289

lstm.bias_ih_l0 f4 [200]
0	0xbeeeed7e	-0.46665567
1	0xbf1abd96	-0.60445535
2	0xbe785673	-0.24251728
3	0xbf2d1259	-0.6760612
4	0xbf4f6dbb	-0.8102681
5	0xbc89b3ce	-0.01680937
6	0x3dd207fc	0.10255429
7	0xbea1f335	-0.31630865
8	0xbe64709e	-0.22308585
9	0xbf40e15e	-0.75343883
10	0xbf561bbb	-0.83636063
11	0xbf586bd2	-0.8453952
12	0xbf0a5704	-0.54039025
13	0xbe6b61b7	-0.22986494
14	0xbf0b9733	-0.54527587
15	0xbf5d304b	-0.86401814
16	0xbdc4f918	-0.09617823
17	0xbf39b0da	-0.7253548
18	0xbf83fbf9	-1.0311271
19	0xbf0e3a4f	-0.5555772
20	0xbf4ff40b	-0.81231755
21	0x3f062bb3	0.5241043
22	0xbe31d5ce	-0.17366716
23	0xbf50fd23	-0.81636256
24	0x3f439d5d	0.7641199
25	0xbf44fce3	-0.76948375
26	0xbf70ffd0	-0.9414034
27	0xbf333557	-0.70003265
28	0xbfa0c826	-1.256108
29	0x3f334f7b	0.7004315
30	0xbeaf4cd9	-0.34238318
31	0xbf6217ee	-0.88317764
32	0xbf75d1f0	-0.96023464
33	0xbeca181f	-0.39471528
34	0xbf233fcf	-0.6376924
35	0xbf489b33	-0.78361815
36	0xbeea027d	-0.45705023
37	0xbf504ea4	-0.81369996
38	0xbf3d1420	-0.73858833
39	0xbf6af7a8	-0.91784143
40	0xbee6aec5	-0.45055214
41	0xbf0813f5	-0.5315545
42	0xbf18133c	-0.5940435
43	0xbf428862	-0.75989354
44	0xbebfb335	-0.37441412
45	0xbf351ac7	-0.70743984
46	0xbecc07df	-0.39849755
47	0xbe6ede59	-0.23327006
48	0xbf224016	-0.6337904
49	0xbf1bcfd8	-0.6086402
50	0x3d3a1744	0.045432344
51	0x3f2278ee	0.63465774
52	0xbee41fc2	-0.4455548
53	0xbf4c58d0	-0.7982302
54	0xbe763d3e	-0.240468
55	0xbec5559a	-0.3854187
56	0x3e7824ab	0.24232738
57	0x3f38f95d	0.722555
58	0xbf0c1b84	-0.54729486
59	0xbf554fe3	-0.8332502
60	0xbecde26a	-0.40211803
61	0x3edba329	0.4289792
62	0xbd8a09e2	-0.06740166
63	0xbdd8a41d	-0.10578177
64	0xbebe0864	-0.37115777
65	0x3ecb4db6	0.39707726
66	0xbf5971f8	-0.8493953
67	0xc006675f	-2.1000593
68	0xbebfaa79	-0.37434748
69	0x3f075968	0.528708
70	0xbf4db951	-0.80360895
71	0xbf38200e	-0.7192391
72	0xbec6895a	-0.38776666
73	0xbf8604c5	-1.0470206
74	0xbf1806c0	-0.593853
75	0xbf13ac52	-0.57684815
76	0xbf14e1e8	-0.58157206
77	0xbf34a515	-0.70564395
78	0xbeea5c75	-0.45773664
79	0xbe4b541c	-0.19856304
80	0xbf4567da	-0.7711159
81	0x3f3d91c2	0.74050534
82	0xbf258c95	-0.64667636
83	0x3ebbe514	0.3669821
84	0xbe09ab44	-0.13444239
85	0x3f079a46	0.5296978
86	0xbf06b541	-0.5262032
87	0xbef86bab	-0.48519644
88	0x3e10715e	0.14105746
89	0xbe3012ab	-0.17194621
90	0x3e7f043b	0.24903958
91	0xbef566d6	-0.4793002
92	0xbeddce6d	-0.43321553
93	0x3d6f2243	0.058382284
94	0xbf2f0b10	-0.68376255
95	0xbeecbc11	-0.46237233
96	0xbf1c7a7a	-0.61124384
97	0x3f34b8d5	0.7059453
98	0xbecc4dc2	-0.39903075
99	0xbd9a81d1	-0.07544292
100	0x3e765bc6	0.24058446
101	0x3e70e9bd	0.23526664
102	0x3dd93a74	0.10606852
103	0x3e8fe7fa	0.28106672
104	0x3e8a3832	0.26996
105	0x3ea0c675	0.3140141
106	0xbc674bfd	-0.014117238
107	0x3e509a37	0.20371328
108	0xbe9ad428	-0.30239987
109	0x3e9cc3b3	0.30618057
110	0xbe774b8f	-0.24149917
111	0x3e0a9636	0.13533863
112	0xbdb7bfd8	-0.08972138
113	0x3e7afa8e	0.24509642
114	0x3e80e22e	0.2517256
115	0x3e02e84c	0.12783927
116	0xbecc7f25	-0.39940754
117	0x3d087d8f	0.033322867
118	0x3e9ae670	0.30253935
119	0xbb303cc1	-0.002689168
120	0xbd8f9f29	-0.07012779
121	0xbe2be672	-0.16787127
122	0xbdcc6fd2	-0.099822655
123	0xbd466c74	-0.048443273
124	0xbe69afad	-0.22820921
125	0x3e7aa4c1	0.24476911
126	0x3e11c896	0.14236674
127	0xbe35b1e4	-0.17743641
128	0xbe296323	-0.16541724
129	0xbd290e9d	-0.041273702
130	0x3dc7c186	0.097537085
131	0x3e4cbfe6	0.19995078
132	0x3e9e4f31	0.30919793
133	0xbe406655	-0.18789037
134	0xbdc88ca1	-0.09792448
135	0x3e6da183	0.23206143
136	0x3e9de8ee	0.30841774
137	0xbae31555	-0.0017325083
138	0xbd5b367b	-0.053518753
139	0xbe2ddf13	-0.16979627
140	0x3ea9c732	0.33159786
141	0xbe56a96b	-0.20963065
142	0x3e666e7b	0.22503082
143	0x3ed64239	0.418474
144	0xbe5ef5b5	-0.21773417
145	0x3de56430	0.1120075
146	0x3e5b5948	0.21420777
147	0x3db159cc	0.086597055
148	0xbe5e6246	-0.21717176
149	0xbdb5d078	-0.08877653
150	0xbf1484a7	-0.5801491
151	0xbcd94937	-0.02652417
152	0xbeb3b098	-0.35095668
153	0xbf752291	-0.9575587
154	0xbf508624	-0.8145468
155	0x3ed8dcb1	0.42355874
156	0xbe500069	-0.20312656
157	0xbedd901f	-0.43274018
158	0x3dc61471	0.09671868
159	0xbf547c77	-0.8300242
160	0xbefed023	-0.4976817
161	0xbf3f82ff	-0.7480926
162	0xbec40be1	-0.38290313
163	0xbe8de931	-0.27716973
164	0xbf08675b	-0.5328271
165	0xbf72cda1	-0.94845015
166	0xbe017af7	-0.12644564
167	0xbf46aeb6	-0.7761034
168	0xbf75e62c	-0.9605434
169	0xbf7c3b7e	-0.9852828
170	0xbf2771f8	-0.6540828
171	0x3e981af6	0.2970807
172	0xbdd5c7f3	-0.10438528
173	0xbf38c368	-0.72173166
174	0x3f162d57	0.58662933
175	0xbf29ed04	-0.6637728
176	0xbf79638a	-0.9741751
177	0xbf175726	-0.5911735
178	0xbf8c15bd	-1.0944134
179	0x3eb2a2d9	0.34889868
180	0xbe0b6992	-0.1361449
181	0xbf3cfcee	-0.7382344
182	0xbf81cfef	-1.0141581
183	0xbea97481	-0.33096698
184	0xbf0e19cb	-0.55508107
185	0xbeec8853	-0.46197757
186	0xbec66bbf	-0.3875408
187	0xbf5cc22f	-0.862338
188	0xbf3ed85e	-0.745489
189	0xbf5d8996	-0.86538064
190	0xbed8a13c	-0.42310512
191	0xbea66a08	-0.3250277
192	0xbddd68d2	-0.108110085
193	0xbf29d6a8	-0.66343164
194	0xbec09b6f	-0.37618586
195	0xbf18b98f	-0.5965814
196	0xbea3829c	-0.31935585
197	0xbf28710d	-0.657975
198	0xbf247fef	-0.6425771
199	0xbed8f1d7	-0.4237201

lstm.bias_hh_l0 f4 [200]
0	0xbefa9e22	-0.4894877
1	0xbf1cf864	-0.61316514
2	0xbe998c64	-0.29989922
3	0xbf37b8cd	-0.7176636
4	0xbf3798e7	-0.71717685
5	0x3d1e3766	0.03862705
6	0x3e13f73f	0.14449786
7	0xbe992081	-0.2990761
8	0xbe455828	-0.1927191
9	0xbf6b56aa	-0.91929114
10	0xbf5ad7c1	-0.85485464
11	0xbf69b98a	-0.91298735
12	0xbef30dee	-0.47471565
13	0xbef31cd2	-0.47482926
14	0xbf05ad9a	-0.5221802
15	0xbf84b929	-1.0369006
16	0xbe631e31	-0.22179486
17	0xbf2e0f0c	-0.6799171
18	0xbf94085f	-1.1565055
19	0xbedfcd7c	-0.4371146
20	0xbf3b8a2d	-0.73257715
21	0x3f0be0d1	0.5463992
22	0xbdba64fd	-0.09101293
23	0xbf164851	-0.58704096
24	0x3f0a8bc5	0.5411952
25	0xbf284faf	-0.6574659
26	0xbf78ba98	-0.9715972
27	0xbf378791	-0.7169123
28	0xbf9392e2	-1.15292
29	0x3f29bd7d	0.6630476
30	0xbe8fa313	-0.28054103
31	0xbf63c082	-0.8896562
32	0xbf847666	-1.0348632
33	0xbf078f56	-0.5295309
34	0xbf442d57	-0.76631683
35	0xbf5a17bb	-0.8519246
36	0xbedc560f	-0.43034407
37	0xbf2b7754	-0.66978955
38	0xbf3209c2	-0.6954614
39	0xbf2ac49e	-0.66706264
40	0xbf1fe73a	-0.624622
41	0xbf1f77cd	-0.62292176
42	0xbf382aaa	-0.719401
43	0xbf446288	-0.76712847
44	0xbed218db	-0.41034588
45	0xbf19ac55	-0.6002858
46	0xbef4d161	-0.47815993
47	0xbe7ca9c8	-0.24674141
48	0xbf19a708	-0.60020494
49	0xbf173192	-0.59060013
50	0x3d8f01a1	0.069827326
51	0x3f29cf52	0.6633197
52	0xbf04a539	-0.5181461
53	0xbf3e7828	-0.74402094
54	0xbea47845	-0.32123008
55	0xbece39f8	-0.40278602
56	0x3e364539	0.17799844
57	0x3f46c657	0.7764639
58	0xbee2f555	-0.44327798
59	0xbf4bc6d1	-0.79600245
60	0xbeb229c2	-0.34797484
61	0x3efaf7a6	0.49017066
62	0xbe3b5aff	-0.18296431
63	0xbe1417ae	-0.14462158
64	0xbeb241dc	-0.34815872
65	0x3f0a9f2d	0.5414913
66	0xbf363624	-0.7117636
67	0xc009028f	-2.1407812
68	0xbeccb777	-0.39983723
69	0x3ee09705	0.4386522
70	0xbf29ff7b	-0.6640546
71	0xbf2dd9b4	-0.67910314
72	0xbeb110fc	-0.3458327
73	0xbf8f69fd	-1.120422
74	0xbf22fdf6	-0.63668764
75	0xbf29131c	-0.66044784
76	0xbf0417b6	-0.5159868
77	0xbf584109	-0.84474236
78	0xbf2a367c	-0.66489387
79	0xbebe7a31	-0.372026
80	0xbf7cbe50	-0.98727894
81	0x3f2848a8	0.65735865
82	0xbf41a3c5	-0.7564052
83	0x3ea04998	0.31306148
84	0xbde30c66	-0.11086349
85	0x3eee41ba	0.4653452
86	0xbeef696f	-0.46760127
87	0xbf21fbcd	-0.6327484
88	0x3e65741a	0.2240757
89	0xbe2a796d	-0.16647883
90	0x3ea59050	0.32336664
91	0xbecb889a	-0.39752656
92	0xbeeb218b	-0.4592403
93	0x3d06abe3	0.032878768
94	0xbf0c3316	-0.5476545
95	0xbeafa27d	-0.34303656
96	0xbf100370	-0.56255245
97	0x3f37b68f	0.7176294
98	0xbf2647ef	-0.6495351
99	0xbd948355	-0.07251612
100	0x3ed33e60	0.41258526
101	0x3d6d87aa	0.057990707
102	0xbc4ae5a7	-0.012383855
103	0x3e62f05a	0.22162
104	0x3ea03f82	0.31298453
105	0x3eba2a9d	0.36360636
106	0xbd399661	-0.045309428
107	0x3e09bf0a	0.13451782
108	0xbe49bf2a	-0.1970183
109	0x3e244833	0.16043167
110	0xbd938ffa	-0.07205196
111	0x3e30a501	0.17250444
112	0xbe2fe3db	-0.17176764
113	0x3e49c97e	0.1970577
114	0x3e148e47	0.145074
115	0xbd951fa6	-0.07281427
116	0xbe58183b	-0.21102993
117	0x3da374d4	0.079812676
118	0x3d8c507b	0.06851288
119	0x3def776f	0.11692702
120	0xbe98766c	-0.2977785
121	0xbc5c0b26	-0.013430392
122	0xbe96dfb4	-0.29467547
123	0xbd3d9576	-0.046285115
124	0xbe653731	-0.22384335
125	0x3e272d46	0.16325864
126	0x3e811be8	0.25216603
127	0xbe061797	-0.13094936
128	0xbe2a68af	-0.16641496
129	0xbcd72d12	-0.026266608
130	0x3e95abdb	0.29232678
131	0x3d5e5f93	0.054290365
132	0x3e9bdedc	0.30443466
133	0xbd8ce093	-0.06878772
134	0xbda78711	-0.08180059
135	0x3e890dff	0.2676849
136	0x3da7cf68	0.081938565
137	0xbe2bd47c	-0.16780275
138	0x3d884359	0.066534705
139	0xbdac8ef4	-0.08425704
140	0x3e209e2d	0.1568534
141	0xbec280ff	-0.3798904
142	0x3eb309d4	0.34968436
143	0x3e818aa5	0.2530109
144	0xbe8a1ab7	-0.26973507
145	0xbd97cffe	-0.07412718
146	0x3e7cfac9	0.24705042
147	0x3dda40de	0.10656904
148	0xbe68cdbe	-0.22734734
149	0xbc1b43fd	-0.009476659
150	0xbf0246a7	-0.50889057
151	0xbdd71437	-0.105019026
152	0xbe684ff4	-0.2268675
153	0xbf3c7989	-0.7362295
154	0xbf6247ac	-0.8839061
155	0x3eb2a613	0.3489233
156	0xbe900d8c	-0.28135335
157	0xbed651eb	-0.41859373
158	0xbd6bc163	-0.057557475
159	0xbf4de179	-0.8042217
160	0xbf128dfb	-0.57247895
161	0xbf2440fb	-0.6416165
162	0xbe6509ca	-0.22367015
163	0xbe69994d	-0.22812386
164	0xbefe660d	-0.49687234
165	0xbf5d9141	-0.86549765
166	0xbe7d49fd	-0.24735256
167	0xbf43ae30	-0.76437664
168	0xbf75e4b0	-0.96052074
169	0xbf447107	-0.76734966
170	0xbf2d19b6	-0.67617357
171	0x3ec9a012	0.39379936
172	0xbe27ad7f	-0.16374777
173	0xbf271980	-0.65273285
174	0x3f312ee9	0.69212204
175	0xbf1d55b6	-0.6145891
176	0xbf8961bf	-1.0732955
177	0xbf590eca	-0.8478819
178	0xbf8bba6f	-1.091627
179	0x3e9a2233	0.30104217
180	0xbe9924ab	-0.29910788
181	0xbf4c1138	-0.79713774
182	0xbf81b3bf	-1.0132979
183	0xbefc6dc3	-0.49302492
184	0xbee85d1c	-0.45383537
185	0xbea02ab7	-0.3128259
186	0xbf0bdac5	-0.5463069
187	0xbf4e76a7	-0.806498
188	0xbf4a5060	-0.7902889
189	0xbf7b1d2a	-0.98091376
190	0xbeaaa7ec	-0.3333124
191	0xbe8feea8	-0.28111768
192	0xbdd2d810	-0.10295117
193	0xbf1ef7e0	-0.6209698
194	0xbe7cb82d	-0.24679632
195	0xbf2e3cf7	-0.68061775
196	0xbebe1235	-0.37123266
197	0xbf194219	-0.5986648
198	0xbf347a93	-0.70499533
199	0xbedc0d55	-0.42978922

linear.weight f4 [1, 50]
0	0xbf0aa565	-0.5415862
1	0xbe901dd8	-0.2814777
2	0x3da07fdd	0.07836888
3	0xbccc0190	-0.024903089
4	0xbebfffa0	-0.37499714
5	0xbe2d78b8	-0.16940582
6	0xbe96c0f1	-0.29444078
7	0xbd4cf3ff	-0.05003738
8	0x3da1593f	0.078783505
9	0xbe0ccbd6	-0.13749632
10	0x3e428a4e	0.18998072
11	0x3d710900	0.058846474
12	0x3d182b2e	0.037150554
13	0xbe2ff0b7	-0.17181669
14	0xbea6573c	-0.3248843
15	0x3d4d4512	0.0501147
16	0x3e1277fb	0.14303581
17	0xbe7cb8ff	-0.24679945
18	0x3dfc9ee8	0.123349965
19	0x3dc5d141	0.09659053
20	0x3dda007d	0.106446244
21	0x3ca01dbe	0.019545432
22	0xbd5effd9	-0.054443214
23	0x3e2645d5	0.16237576
24	0x3ef8b78c	0.48577535
25	0xbcf682ea	-0.030091722
26	0xbe8b53bd	-0.27212325
27	0xbd4ffea0	-0.05077994
28	0x3e33f976	0.1757563
29	0x3e101ed3	0.14074259
30	0xbd91b29b	-0.071141444
31	0xbe86e23a	-0.26344472
32	0x3e57a997	0.21060787
33	0x3cd72607	0.02626325
34	0xbccf4841	-0.025303008
35	0xbde1b984	-0.110217124
36	0xbe110c77	-0.14164911
37	0xb9e84f74	-0.00044309685
38	0x3d9e8f77	0.077422075
39	0x3c1aefa6	0.009456551
40	0xbde9e8b5	-0.114213385
41	0x3c8ef0e5	0.017448852
42	0xbd8da868	-0.069168866
43	0xbec7a5ff	-0.38993832
44	0x3d5b9356	0.053607307
45	0xbe832483	-0.25613794
46	0xbe734fc7	-0.23760901
47	0xbde5a6b1	-0.112134345
48	0x3c0110fa	0.007877583
49	0x3d06e428	0.03293243
