4. Deep learning part/DL_hourly/final_model_state.pth (torch, 397756 bytes, 18 tensors)

lstm.lstm.weight_ih_l0 f4 [352, 1]
00000000: f154 393e c0ee 0fbe 5ca0 62be e85f 16be
00000010: 67d5 e6bc 65f4 963e 9054 69be faea 86bd
00000020: e23b 99be 79cb 19be 1f07 52bf a755 0bbd
00000030: b4e6 fabd 690e 933e 875f 7fbe 9a82 2dbf
00000040: a435 a4bd 76c5 14be b9f2 17be 8478 a9bd
00000050: 5f34 6ebe 99cc c8bd 18ce 65be 1e77 e8bc
00000060: 326b 0dbe 46d5 3cbe f088 e7be a13a febc
00000070: e905 f0bd d2f8 46be a024 113d 5342 2fbf
00000080: 6418 8ebd 7200 03bf 8868 91be 64b8 ec3e
00000090: e668 513d fe4b 14bf 86bf 63bd 300c 94be
000000a0: 5adc 2bbe 9103 833e 1467 09be 8da3 96bb
000000b0: ecb2 5ebe 10e6 4ebe 4286 15be 4061 d1bd
000000c0: 853c 6abe 3c4c 853e b475 36be 9127 37be
000000d0: 3666 a9bd dd92 b1bd 899a 3dbc ed19 9f3e
000000e0: 912d 2cbe d534 10be 2d2d 9fbe ee94 80be
000000f0: 4710 8bbd 55d9 b3bd 629b 99be b1dd 1dbd
00000100: cea3 5abe 9395 463d c8fb 3cbe ff7e 20bd
00000110: 3ba3 4abd 791c 90be 0349 92be e75f 8fbe
00000120: 1e8f d5bd 8d90 a2bc 481e cabd 92dc 3d3e
00000130: 1875 b7be c8fd 8abd 689c a9bd 9e33 10be
00000140: 00db 1dbe 59e4 08be d5d4 53be adbf 18bf
00000150: 8e22 7f3d 9d23 43be 68ea 21be 5be0 473d
00000160: d4f7 993d 2f65 18bd 39c3 1dbe a9dd 8ebd
00000170: 2e2f ac3d 7dc4 5e3d 3def 67be c91d 783c
00000180: 073e 26be 302e 123d f2ef fabe 08f6 53bc
00000190: f4c7 073e 2ea5 ccbe 39f1 bcbd dbc5 dabe
000001a0: 02b2 45be 0dcf de3c 7a3b f93d 8ae5 89bd
000001b0: 4a06 1bbe c8f8 c2bc 7d52 aaba fcea 10bc
000001c0: 6ea6 caba 6a79 41be 3289 20bf 8197 403d
000001d0: 8585 a3bc a73b bebd f2e1 623d fb8c 3dbe
000001e0: bcc5 893d c528 3fbf 82f8 d53c 4045 eabe
000001f0: d398 313e ca22 c0be 19f2 23bd 6395 58bb
00000200: 54aa debd 7bb0 f3be ec16 f2bd 95f9 5f3d
00000210: 95c4 cdbd 4cf7 6bbe feae fbbc 08ba f5bd
00000220: 9049 69be f57c 88be 1319 033e 0eea f5bd
00000230: 2633 83bc 6d03 28bd 21ad 7a3e 486a 9c3d
00000240: de69 413d 070d aa3c 8985 98be 4cae b9be
00000250: 17e5 f5bc 7449 29bd 9f66 d4be 5daa 273e
00000260: 900b 54bd 62d9 6e3d 139f 57bd ef6b 97bd
00000270: c17a fe3a 448a c2be 934c 9fbe 5482 9cb8
00000280: cd51 cbbd 5cf1 e6bc fd57 84bd 9058 ad3e
00000290: 4d46 9dbd be7a d9bc f05f 09bd a59d 1fbe
000002a0: 6066 57bd 5e6b 0abe b9d7 3ebd f29a e2be
000002b0: 374f fabe 474c a4bd 0a80 00bd a39b 643e
000002c0: 80e9 963e fa87 903d 1135 813e 66ac dd3e
000002d0: 27fe 2fbd 06d4 103f 9d9b 07bf bf3a 19bf
000002e0: 77de 5d3e 1c75 a3bd f8a0 fa3e 1c79 423c
000002f0: eca9 f9bb 98e3 2abf 2d36 403e 8a8b b5be
00000300: d955 c4be 3a2c b9bd 1df7 07be 22db 08bf
00000310: 0c99 a2be 330a 49be 4200 3fbe a44a 5b3d
00000320: 9115 31be 1ad9 b83d fc4d 0abf 1d74 c33d
00000330: 94a5 c9be a10d 863e 4996 6bbe 7ded 053f
00000340: 80f2 b83d f916 023f 96f5 843d dd6b 233f
00000350: 792f f53d 4186 e0be ecd4 abbe 3301 f2be
00000360: 7d16 583d 1cbc f2be 2b8b f43d 2027 a13d
00000370: ad25 303e c723 95be c40e 733d 3c3c 2ebe
00000380: cf2d 883e 8770 333f f0df 6e3e 58fd 44bd
00000390: 5a24 cd3d 4fad 133d 0906 f73e bbaa 1cbf
000003a0: c173 4f3e d8f3 6e3e 13a4 23bf 918f 023f
000003b0: 660a bd3e 1f00 55be f51d c4be 8626 c33c
000003c0: 23c1 8e3e 2612 4e3e ceb8 703c 5930 85be
000003d0: 82ff 14bf 9d20 e8bc 2db2 d23e a269 603e
000003e0: 48df 70bd 261f 223e 9740 d53e 6304 fdbd
000003f0: de23 b23c 50ce 3b3e cd7b 15be 209f df3d
0.18098809 -0.1405592 -0.22131485 -0.14685023 -0.02817793 0.29483333 -0.22786164 -0.06587787
-0.299285 -0.15019025 -0.82042116 -0.03401723 -0.122510344 0.28721932 -0.24938785 -0.6777741
-0.08018044 -0.1452845 -0.14838685 -0.0827494 -0.23262165 -0.09804649 -0.224419 -0.028377112
-0.13810423 -0.18440732 -0.45221663 -0.031033816 -0.11719877 -0.19430855 0.03543532 -0.6846058
-0.06938246 -0.51172554 -0.28400064 0.4623443 0.05112543 -0.57928455 -0.055602573 -0.28915548
-0.16783276 0.25588658 -0.13418227 -0.0045971335 -0.21747941 -0.2020495 -0.14601997 -0.10223627
-0.22874649 0.26034725 -0.17818338 -0.17886187 -0.08271448 -0.0867059 -0.011572489 0.31074467
-0.16814257 -0.14082654 -0.31089154 -0.25113624 -0.06790214 -0.08781687 -0.3000136 -0.0385415
-0.21351549 0.04848249 -0.18455422 -0.039183613 -0.049472075 -0.28146723 -0.2857133 -0.28002855
-0.10427688 -0.019844318 -0.09869057 0.18541172 -0.35831523 -0.06786686 -0.08281785 -0.1408219
-0.15415573 -0.13368358 -0.20686658 -0.59667474 0.062288813 -0.19056554 -0.15812075 0.048797946
0.075179726 -0.03720587 -0.15406503 -0.06975872 0.08407436 0.054386605 -0.22649856 0.01514382
-0.16234599 0.03568858 -0.4901119 -0.012937076 0.1325987 -0.39969772 -0.09225697 -0.42729077
-0.19306186 0.027198339 0.121695474 -0.06733234 -0.15139118 -0.023800269 -0.0012994554 -0.008845087
-0.0015460977 -0.18893972 -0.62709343 0.047019485 -0.019961128 -0.092887215 0.05539126 -0.18510811
0.06727168 -0.74671584 0.026119474 -0.4575596 0.17343454 -0.37526542 -0.040025804 -0.0033048026
-0.10872331 -0.4759558 -0.11820778 0.05468138 -0.10047261 -0.23043555 -0.030723091 -0.11998373
-0.22781968 -0.26657835 0.12802534 -0.12007533 -0.0160156 -0.041018892 0.24480106 0.07637459
0.047220103 0.020758165 -0.2978938 -0.3626579 -0.030016465 -0.041329816 -0.41484544 0.16373582
-0.05176884 0.05831278 -0.05264194 -0.073936336 0.0019415246 -0.37996113 -0.3111311 -7.462935e-05
-0.09927712 -0.028191261 -0.06462095 0.3385663 -0.076794244 -0.026547786 -0.03353876 -0.1558748
-0.052587867 -0.1351752 -0.046592448 -0.4425884 -0.4888856 -0.08022361 -0.031372108 0.22324996
0.2947502 0.070571855 0.252358 0.43295592 -0.042966988 0.5657352 -0.5297182 -0.59855264
0.21666895 -0.07981321 0.48950934 0.011869695 -0.007619133 -0.6675353 0.18770666 -0.35458022
-0.38346747 -0.09041639 -0.1327786 -0.5345937 -0.3175739 -0.19632797 -0.18652442 0.05353798
-0.17293383 0.09025784 -0.54025245 0.09543631 -0.3938414 0.26182273 -0.23006548 0.52315503
0.09030628 0.50816303 0.06492154 0.6383646 0.11971945 -0.43852428 -0.33560884 -0.4726654
0.05275582 -0.4740914 0.11940607 0.078687906 0.17201872 -0.29128858 0.059340253 -0.17015165
0.2659745 0.7009358 0.23327613 -0.04809317 0.10016699 0.03605395 0.48246792 -0.61198014
0.20259 0.23335207 -0.6392223 0.51000315 0.36921996 -0.20800827 -0.38304105 0.02382208
0.27881727 0.2012411 0.014692498 -0.2601345 -0.58202374 -0.028335864 0.41151562 0.21915296
-0.058806688 0.15832195 0.4165084 -0.12354352 0.021745618 0.1834042 -0.14598008 0.109190226

lstm.lstm.weight_hh_l0 f4 [352, 88]
00000000: 0e64 99bc 2bd3 1c3d fe65 6bbd 1db3 8c3d
00000010: 7852 40bd b4b3 703c 7641 aebc d547 c93c
00000020: 1364 98bd 0bab 423e 6588 afbb cbe5 563d
00000030: fc64 093e 59a3 32bd 9043 173d bbed 02be
00000040: 8f2f fdbc 67dd c83d 136e dbbd cbf8 10be
00000050: 1d1a 6fbd 2b89 bfbd 9bcd d83d 1023 40be
00000060: 6243 083d d184 193e 8020 5abd 394b e83d
00000070: e3a6 523c ecd1 89bb bcf4 053e f102 723c
00000080: ec2e d1bd a7d8 8dbb 3770 1ebd b76b 4ebd
00000090: 4fef 0abc 5d24 aebc 25f0 9abd eee7 36bd
000000a0: e22e 30be b161 e23c a15e 7abd 9e3c 0e3e
000000b0: f22e 273d 7320 793d 2024 fabd 04de 6abd
000000c0: 3f64 14be 0536 ba3d 7c16 8e3d 9489 2ebd
000000d0: 41e4 9e3d 014c 833d 07b6 983d 5aaa 083e
000000e0: 7c75 1a3e 34c6 183e de87 93bd 4ef0 aa3e
000000f0: 62ff 063d beb9 283d 341a b8bd 5612 993c
00000100: f5da dc3d 03dd 043d 4bcc a6bb f983 7abd
00000110: fb93 37be 06ad 953d 8dc6 8f3d f5bf 49bd
00000120: 9fc0 15be 1c78 263e 63f4 bdbd e794 0d3d
00000130: 0c19 9c3d a566 09bd bd35 b53d a66e aebd
00000140: 7bbe 1fbe 7234 e93d 1605 353d 3de4 483d
00000150: ae5b 78bd 3c97 e7bd c0b0 1dbd 0418 2d3e
00000160: b6c0 253d cd06 22bd c243 20be d868 f23d
00000170: 52b6 2c3d 4404 1cbe a069 363d 0285 6d3d
00000180: f6e6 3f3e 3768 a1bd 7341 b93d 8828 1e3e
00000190: 8883 923d 6d77 4cbc c2d8 123d f179 bb3d
000001a0: 1c27 c63d df99 983c fd60 0dbe c49c b6bd
000001b0: 23a2 fbbd a42a ea3d 15ee c23d 12e0 d83d
000001c0: b6d2 78bd cb58 32be 48c1 bfbc b2d4 92bd
000001d0: a235 7c3e 8047 14bc f410 973c 1340 b4bd
000001e0: d3e3 253e 23ef a93d 48e9 a03d 15ff 863d
000001f0: 7c73 bcbd 100a 32bd 63df 6cbd 9f2e 903c
00000200: 437f b8bd 6d23 92bd 4766 633d 3a96 4abe
00000210: 45d1 7fbd 4719 6ebc a46b 533d 92c8 243e
00000220: 3abb 353d e722 18be b80a 963d b917 28be
00000230: 5713 09be 9606 9b3a 996d 223d f829 c73d
00000240: c0c8 b3bc 0279 21be d1d8 98bc c8d0 263e
00000250: 910e 71bd e0d5 bfbb 57ae c2bd 446f 78bd
00000260: c249 ce3c ba9a 26be 0221 19bc 88fc cb3c
00000270: 501f 20bd 5a40 24be c7bf 9c3c 43b4 093c
00000280: fa24 423e dca0 313e bbe8 7a3d c59d 74be
00000290: 0022 123d 387d 8dbd 2f27 56be 25a9 d3bd
000002a0: 799b 9dbd e8e0 dcbd c95e 993d 9338 a83c
000002b0: 3ac7 d1bd 13fd 88bd 1e94 fc3d 8436 6abb
000002c0: dd5f 29be 3190 7c3d 31b7 6e3c 94f9 7fbe
000002d0: 80c2 2cbe 277c 85bd c47f 7ebd dbcd dabc
000002e0: 2e68 49be 4b06 bebd 42a7 b1bd 60b7 18be
000002f0: 0ebd 82bd 28e2 403d e70a 4e3d d125 0f3e
00000300: f209 023e 813c 07be b07e fdbd 8e3b ab3d
00000310: e87b 4d3d 464b b6bd f626 98bd b2e6 ef3d
00000320: 5051 d7bd 4f41 1c3d 12c4 f13d 0210 023e
00000330: b1b2 ab3e 8e13 6fbd 8f62 0cbe 3511 afbe
00000340: 9a3f 113e 93da b0bd 1d88 cdbb 39bd e5bb
00000350: 49c8 64bc c5de 813e 37bf 123e aae6 e83c
00000360: 89af 10be cb13 f9bd bb96 403c ff15 19be
00000370: 355a 30be 5ac0 8f3d 508f cb3d 6ed4 f13d
00000380: fb1e 38be 6e10 89bd 63bf 963c e2aa f23c
00000390: 06c4 0d3e 1061 d33d 46d5 043e 7aee 373e
000003a0: 55d3 93bd e45f d73d d225 423d f235 fcbc
000003b0: 46f7 4bbe df25 fd3b b3a9 4b3d a866 073d
000003c0: 956a fe3d b6b5 523d d80d d4bd d5f6 b93e
000003d0: 0a3d d0bc b289 d93c ec28 0dbd 2d03 95be
000003e0: 837b 65bd 3996 cb3c 9c99 f63d 0c5d 0cbe
000003f0: 4b9d eb3d be3b cabc f8e1 2fbd 1668 193e
-0.018724468 0.038287323 -0.057470314 0.06870101 -0.04695365 0.014691282 -0.021271449 0.024570385
-0.07440963 0.1901056 -0.0053568357 0.05246524 0.13417429 -0.04361281 0.036929667 -0.12786
-0.030906467 0.09807854 -0.10714354 -0.14157407 -0.058374513 -0.093523346 0.10586091 -0.18763375
0.033267386 0.14992072 -0.05325365 0.113424726 0.012857172 -0.004205933 0.1308164 0.014771209
-0.10214028 -0.0043288055 -0.038681235 -0.050395694 -0.008479907 -0.021257574 -0.07565335 -0.04465478
-0.17205384 0.027634474 -0.0611254 0.13890311 0.040816255 0.06082196 -0.122139215 -0.057340637
-0.14491366 0.09092335 0.06937882 -0.042611673 0.0775838 0.06410981 0.07456594 0.13346234
0.15083879 0.14919358 -0.07203649 0.33386463 0.032958396 0.041192763 -0.08989373 0.018685501
0.1078395 0.032437336 -0.0050902716 -0.061161015 -0.17927544 0.07308392 0.070202924 -0.04925533
-0.1462426 0.16256756 -0.09275129 0.034565832 0.07621965 -0.033545155 0.088481404 -0.08517198
-0.15600006 0.11386956 0.044194303 0.04904579 -0.060634308 -0.113081425 -0.03849864 0.16903692
0.040466987 -0.039557267 -0.15650848 0.118364036 0.04216606 -0.15236002 0.044534326 0.057988174
0.18740448 -0.078812055 0.090456866 0.15445149 0.07153994 -0.012479645 0.035851248 0.09154118
0.09675428 0.018628059 -0.1380653 -0.089166194 -0.122867845 0.11433914 0.09518067 0.10589613
-0.060747825 -0.17416684 -0.023407593 -0.07169475 0.24629834 -0.00905025 0.018440701 -0.08801284
0.1620019 0.08297565 0.07856995 0.06591622 -0.092017144 -0.043466628 -0.057830226 0.017600356
-0.09008648 -0.07135663 0.05551746 -0.1978387 -0.062455434 -0.014532394 0.051616326 0.16092137
0.044368006 -0.14857064 0.07326263 -0.164153 -0.13386284 0.0011827524 0.0396553 0.09724802
-0.021946311 -0.15768817 -0.018658074 0.16290581 -0.058851782 -0.0058543533 -0.09505909 -0.060652986
0.025181655 -0.16269961 -0.009346249 0.02490069 -0.039092362 -0.16040173 0.019134415 0.008404794
0.18959418 0.17346519 0.061257105 -0.2388831 0.035676956 -0.06908649 -0.20913385 -0.10334996
-0.0769567 -0.10785085 0.07488782 0.02053479 -0.102430776 -0.06688895 0.123329386 -0.003573806
-0.16540475 0.06166095 0.014570043 -0.2499755 -0.16871071 -0.06517821 -0.062133566 -0.026709488
-0.19668648 -0.09278544 -0.0867448 -0.14913702 -0.063837156 0.04709068 0.050303366 0.1397927
0.12699106 -0.13206674 -0.12377679 0.083609685 0.050166994 -0.08901076 -0.07429306 0.117139235
-0.10513556 0.03814822 0.118049756 0.12701419 0.33534768 -0.05836826 -0.13709472 -0.34192815
0.14184418 -0.0863544 -0.0062723295 -0.0070110825 -0.013963767 0.25365272 0.14330755 0.028430302
-0.14129461 -0.12161978 0.011754687 -0.14949797 -0.17221911 0.0701911 0.09939444 0.11808096
-0.17980568 -0.06692587 0.018401807 0.029622499 0.13844308 0.103212476 0.12971982 0.17962065
-0.07218043 0.105163366 0.04739935 -0.030787442 -0.19918546 0.007725462 0.049722385 0.033056885
0.12422673 0.051442824 -0.10354203 0.3632113 -0.02541973 0.026554916 -0.034462854 -0.29103985
-0.056025993 0.024851905 0.120410174 -0.1370737 0.11504611 -0.02468669 -0.04294011 0.14981112

lstm.lstm.bias_ih_l0 f4 [352]
00000000: c7aa 23bd c94c ebbd 0ec0 38bd c3a2 943d
00000010: 808a 3abd 4dd4 7d3e d67c 5e3e 3706 143e
00000020: 20e6 f23c 2669 b6bc 5014 8b3d 44ab 1cbc
00000030: 5bcf 84bd 3a39 ee3e e7b6 0c3d 528c 21be
00000040: 18a8 d6bb 10c6 cdbd 39c1 57bd b868 493e
00000050: f62a 903d f8ce b73d 6f62 293d c96a eabd
00000060: f76c dcbc f70e f53d acc7 4b3e 5624 7ebd
00000070: 81c4 413e 3a61 983d 82d5 513d 72a8 143e
00000080: 9267 043d 77ec 683d 466c 893d ee74 193f
00000090: fb2b d5bd 874c d63d 057a 083e 6d24 283e
000000a0: ee9c b5bd f60d cd3e ac8d 93bc 26db 733d
000000b0: af58 2abe 48c8 aebd e6c6 023d b2bc 0f3a
000000c0: 209b a83d 387d ac3e 1d95 223d 238f 5fbc
000000d0: 645c 7c3d 09ad 98bd 2906 f03d 2cbb 9e3e
000000e0: 0466 a1bd 65fc 663d 1950 183e 6178 f83d
000000f0: 37c4 943c 59e1 9e3d 0438 043d 1299 acbd
00000100: 8dfb 2abe 0dbb 03be 435e f0bd 64bc 5b3d
00000110: 4315 913e fed3 8cbd 1089 4ebd 9c12 963b
00000120: bcc9 cfbd 1354 07be 31cb cb3d 4a25 e23d
00000130: 5db2 cabd 9740 fdbc 9911 33bd 0898 afbb
00000140: 1ef4 e2bc aca6 aa3d 281c 05bb 921e c83c
00000150: d9e8 ae3e e725 0ebd 4485 f03b ec9e 133d
00000160: b9e0 16bd d09c 6ebd 21ab 563c 495a ebbd
00000170: 3624 843d a8cb 88be e0df 47be 69ba 97bd
00000180: 33bc 753c 2e9f f03d 704c 43bc 9469 e8bc
00000190: 11b0 153d 1184 3fbe d8ce aebd 5aa3 d9bd
000001a0: e886 b6bd 4e47 abbd 7225 11bc 3d07 163d
000001b0: 8e04 93bd 09c1 b83d 11ee e03d e5dd 883b
000001c0: cf3c 173d 9dc8 bf3c de04 a7bd c2ad a73c
000001d0: 19d3 0ebe 0d68 2bbe 57b0 82bd 7ba6 0c3d
000001e0: d37e b43d 7a5b 68bb dea0 263e f055 c8be
000001f0: edba c2bd 87f1 92bd ac8f afbd f4a9 a1bd
00000200: 3019 34be dc5e e0be 1b09 3e3d db9b ff3c
00000210: 5c6d 193d 0d2e 2cbd 5864 d83d e89d 0cbc
00000220: 7989 05be e21d a8be 087f 5c3d 081e ad3b
00000230: c256 383e 7e6a 893c f6ef 853e 0d58 fcbd
00000240: b05c bfbd af81 b2bd c231 ca3c 5568 ca3c
00000250: 8f8a 86bc 8c20 083d 3698 1ebe 9730 8e3c
00000260: e21f 0d3c 83c1 b7bd e6f0 42bd 32d8 953c
00000270: af0f 6d3d 5dc1 43bd ee9c c53c 25b0 283d
00000280: a764 293d f745 29bd 9e56 24bd 9ecd db3d
00000290: cd3f bcbc 7fcb d73c 31dc 81bc 98df 1fbd
000002a0: 84fe bf3d 0535 45bd 232f 5b3b 9a0a 78be
000002b0: 51dc 9dbe 7123 19be bd28 983d 58ff 733d
000002c0: 086d 98bd 8b3e 9dbd 70c2 f33d 5f7a cabd
000002d0: 29aa 643b a44b 4bbd de9d 463c 8b11 9dbb
000002e0: 049f 983b e4ff 14be 14ed ffbd efb6 12be
000002f0: f433 383d 1576 193d 12ff cb3d 6f99 383d
00000300: a207 943d 92ad a0bc 6435 cabd 6ab3 b73c
00000310: d349 78bc 2c80 2fbe 7d49 7d3c 6372 b2bc
00000320: db5f a4bd e45c df3d 6297 203d 93bc 223d
00000330: 9441 293d ab13 c7bc 5727 a63c 8f6f 60bd
00000340: 6038 583c 819e 0b3c 2b6a 29be ea88 3bbd
00000350: 2d33 e03d 2064 bb3d 0c5d a63c e52f e93b
00000360: 6053 363d 5fb1 a33d af23 35be c59a 36bc
00000370: 9336 c1bd 9e88 003d e59a a5bc af21 b0bd
00000380: e19c e7bd daea 55bd 2a82 a1bd 0f5e c23d
00000390: 521e 3a3d 4bee 1e3e 1bce 5e3d 7eb7 2139
000003a0: a14b 1ebe 010c 083e 1a28 1a3e 9def d3bc
000003b0: 11e1 bf3c 02fc 1bbd 0e91 d33d 4d67 743d
000003c0: 4e8d 34bd 0cac 51bb e787 efbd f4d5 8fbc
000003d0: 312f 883c b6ee ed3d 18bb d5bd 3929 c3bd
000003e0: abb1 1abe 9a33 edbd e390 513d 9ee9 3c3d
000003f0: 0505 cc3c ca8a 12be 2fdd 1d3e a443 fcbc
-0.039957788 -0.11489255 -0.045105033 0.07257607 -0.04554224 0.24788018 0.21727309 0.14455496
0.029650748 -0.022266936 0.06790984 -0.009562317 -0.064848624 0.46528035 0.034354117 -0.15776184
-0.0065508 -0.10047543 -0.052674506 0.19668853 0.07039444 0.08975023 0.04135364 -0.11446149
-0.026907427 0.11965745 0.19900388 -0.06204637 0.18922617 0.074404195 0.051229008 0.14517382
0.032325335 0.056866135 0.06710105 0.59944046 -0.10408779 0.10463815 0.13327797 0.16420145
-0.088678226 0.40049714 -0.01801189 0.059535168 -0.16635393 -0.08534294 0.031927966 0.0005483135
0.08232713 0.33689284 0.039692987 -0.013644966 0.061611548 -0.07454879 0.11719925 0.31002176
-0.07880786 0.056393046 0.14874305 0.121323355 0.018159969 0.077578254 0.032279983 -0.08427633
-0.16697522 -0.12864323 -0.11736729 0.05364646 0.28336534 -0.06876372 -0.05042368 0.004579855
-0.101459 -0.13215666 0.09950865 0.110422686 -0.09897301 -0.030914588 -0.043717954 -0.0053586997
-0.027704295 0.083325714 -0.0020310972 0.02442864 0.34162024 -0.034704115 0.0073401053 0.03604023
-0.036835406 -0.058255017 0.013102324 -0.1149183 0.06452219 -0.26717877 -0.19518995 -0.07408602
0.0149984835 0.11749111 -0.01192008 -0.028370656 0.036544863 -0.18702723 -0.08535546 -0.1062686
-0.0891245 -0.0836321 -0.008859025 0.036627997 -0.07178603 0.090211935 0.109829076 0.0041768425
0.036923226 0.02341109 -0.08155225 0.020468596 -0.13947715 -0.16738911 -0.063812904 0.034338456
0.08813252 -0.0035454915 0.16272303 -0.39128065 -0.095083095 -0.07174974 -0.08572325 -0.07893744
-0.17587733 -0.43822372 0.046395402 0.031202247 0.03745781 -0.042036105 0.10566014 -0.00858257
-0.13040723 -0.328353 0.053832084 0.005283121 0.18001845 0.016774412 0.26159638 -0.12321482
-0.093438506 -0.087161414 0.02468193 0.024707953 -0.016423492 0.033234164 -0.15487751 0.017357154
0.0086135585 -0.08972456 -0.04759302 0.018291567 0.057876285 -0.047791827 0.024122681 0.04118361
0.041355755 -0.04132649 -0.040121667 0.10732578 -0.022979641 0.026342152 -0.015852066 -0.039031595
0.09374717 -0.048146266 0.0033444844 -0.24222794 -0.3083215 -0.14954926 0.07429645 0.059569687
-0.07442671 -0.07677945 0.119023204 -0.09886622 0.0034891462 -0.049632683 0.012122599 -0.004793351
0.004657628 -0.1455074 -0.12496391 -0.14327596 0.04497142 0.037466127 0.0996076 0.0450682
0.07228018 -0.019614015 -0.09873465 0.022424418 -0.01515432 -0.17138737 0.0154594155 -0.02178306
-0.080260955 0.10906389 0.03920687 0.03973062 0.041322306 -0.02430137 0.02028243 -0.05479389
0.013197035 0.008521677 -0.16544406 -0.04578487 0.10947261 0.09149957 0.02030804 0.007116305
0.044513106 0.07992815 -0.17689393 -0.011145298 -0.09434237 0.03138029 -0.020215461 -0.08600175
-0.11309219 -0.052225925 -0.07886155 0.094905965 0.045439072 0.15520589 0.054395776 0.00015422513
-0.15458538 0.13285829 0.1505436 -0.025871092 0.02342275 -0.03808213 0.10330401 0.059668828
-0.04408007 -0.0031993417 -0.11695843 -0.017558075 0.016624065 0.11617796 -0.10436076 -0.09529347
-0.15106837 -0.11582108 0.051163565 0.046121232 0.024904737 -0.14310756 0.15416406 -0.030793972

lstm.lstm.bias_hh_l0 f4 [352]
00000000: 8167 60bd fe25 1cbe 367d 953d c420 0e3e
00000010: 95ac 5cbe 7099 8f3d 2c48 613e 3005 a33e
00000020: a2a9 69bd f1c2 4fbd 8a69 e43d 6d8f 04bc
00000030: 7e2c 8ebc 2e4a 073f 2f06 e33d 71e7 0abc
00000040: e7d2 1c3e eb37 00be d4ae 04be de3b 973e
00000050: 48c7 c03a 9fac 4d3d 6bbd 0a3e c398 efbd
00000060: f2ec 3fbd d52a 933d 284e 973d d165 18be
00000070: d989 1d3e cadd 93bd bcd2 003d 138e 2b3e
00000080: a55c 043e e32c 803d 8df0 95bc 9da4 f13e
00000090: 8721 c53c 64fa 54bc d9ca 8ebc f7d3 1e3e
000000a0: 30c2 96bd c61f e63e 23ba 57bd 0fd8 6a3d
000000b0: 2584 48bb fd08 94bc b640 b53c 2f4d 8b3d
000000c0: ccd6 883d 1588 9b3e c328 f6bd 49b3 473d
000000d0: 6d92 86bd 3bf3 79bd bd09 203e 44d3 203e
000000e0: 30be 4c3c e703 d1bb b09f 9b3e d262 083e
000000f0: 551a 413d f907 cbbd c2af fa3d 5625 f0bd
00000100: a01b a4bd 6ef3 21be 6e5d 24bd 2647 d93d
00000110: b3cc b03e e6a0 3d3d f1b8 b23c 3168 e5bd
00000120: d8e7 9c3d b2e1 cbbc b8e7 523d 2e43 4a3e
00000130: a58f 42bd 41b2 253d ea2b b3bc fa3b 7fbd
00000140: 696f 503d 249e f1bc 95cb d3bd bd04 1f3e
00000150: 4430 f53e 8930 c53b e6d2 783d 817b 503e
00000160: 1e2a 763c c1ba 1a3c db39 233e 6cbd 1cbc
00000170: 743c 9b3d 3120 86be ccb2 52bd b4f3 61bd
00000180: 6140 08be 9a96 243e 0912 16bd ba41 edbb
00000190: dc49 1b3e a0f9 30be d935 76bd 6ed7 c1bd
000001a0: 1450 bdbd 94b6 87bd b656 05bd 44f6 0b3e
000001b0: b61a 9e3d 4415 553d 68fd 233e 4783 2f3c
000001c0: 83e0 04bd dc03 663d 80fb 07be bdd8 98bd
000001d0: a807 e0bd 0b41 83bd 5aec 7e3b 0b5f 343c
000001e0: 6371 393e 655c bcbd 3e2f 4ebc 024c b3be
000001f0: 4047 a8bc 2acf 283d 8175 19be a8ff 993d
00000200: 461f a8bd c8b8 d4be bd45 5ebd 18df 173d
00000210: f253 7fbd 9178 6c3b 08a8 743d 9859 48bc
00000220: 5b39 b6bd 5a3c 13be 77a9 963d 3c41 3ebd
00000230: 37d3 903c cbe7 de3d 74cc b93d 5543 26be
00000240: 2e24 ccbb ab46 a6bd 86ff 0abd 8afc 33bd
00000250: 5862 9cbd 7a57 613d c5ce 8abe b6f8 e63d
00000260: 9111 05bb 5305 c63c 1309 103c 2362 1bbd
00000270: 2556 a63b 45d6 f23d acea 493d e7a6 aa3d
00000280: 636b 093c 60c3 98bc 3ed1 563d 4192 4b3e
00000290: f584 07bd 3634 df3c 0e2b a43d 4a3e eabc
000002a0: 2bec 6a3d 6411 9ebd 4d9f 13bd d9cf 83be
000002b0: 3bd6 9cbe 043a 803c 43f6 913d 8dbd 393e
000002c0: 016f cbbc 2b2f f93d 8946 e3bc 45fe 93bd
000002d0: 5ef1 eebd b536 c0bc b85b 7a3d 0612 583d
000002e0: 39fc 0abe 132c 333d b179 2abd 4974 4dbe
000002f0: d9b5 d7bd 5cab 2a3e f7ef bebb efb5 1c3e
00000300: 4373 953d 671c 0abd f42a e73c 7268 243d
00000310: 7d36 593d efd4 5cbd 2861 87bd 8a15 9a3d
00000320: 1f74 193b f499 033e 257a 023e ad85 083d
00000330: 9e73 633d 40a0 063d 26f6 013e fb5e fcbd
00000340: e22f dbbd e7ac 3abe ee4a d7bd ed47 ecbc
00000350: 260c b33c 3e1d db3d 2b41 073e c94e ed3d
00000360: c3d6 c03b a32a 8c3d 5aee 8ebc e8d0 b0bd
00000370: bd11 d9bc ab28 ef3d b602 1a3e 7476 81bd
00000380: 4937 e2bc 52bd dfbd d7a8 cc3c 925f 153e
00000390: d099 2f3e bad3 f6bb e73d b2bd 74d1 c83d
000003a0: 9827 023d 54f7 d13d b346 813c 11cd 82bb
000003b0: f95d a2bd 2646 0fbd 0341 e03c 419b 893d
000003c0: 7e55 ae3d 3cb8 c53d f41c a9bd 6ada 5e3d
000003d0: a6cb f03d f1ae 4d3e 8e2e 54bd f4df 1fbd
000003e0: 7b11 9cbd 13bc 1bbd 3bfc 40bd 40b2 26bd
000003f0: 71af 0f3e f140 66bd 7952 353e d375 223e
-0.05478621 -0.15248868 0.07299273 0.13879687 -0.2155021 0.07011688 0.22000188 0.31839895
-0.05704654 -0.05072302 0.111529425 -0.008090836 -0.0173552 0.52847564 0.11085164 -0.0084780315
0.15314828 -0.12521331 -0.12957317 0.29537863 0.0014707828 0.050213452 0.1354882 -0.11699059
-0.046856828 0.07185904 0.07387954 -0.1488259 0.15384616 -0.07220037 0.031450972 0.16753416
0.12925966 0.062585615 -0.01830318 0.47195902 0.024063839 -0.012999151 -0.01743071 0.15510546
-0.07361257 0.44946116 -0.05266775 0.057334956 -0.0030596342 -0.018070692 0.022125583 0.06801831
0.06681594 0.3037726 -0.120194934 0.048754964 -0.06570897 -0.06102298 0.15628715 0.15705591
0.012496516 -0.006378639 0.3039527 0.13318947 0.047144253 -0.0991363 0.122405544 -0.11725871
-0.080130816 -0.15815517 -0.040128164 0.106092736 0.34531173 0.046296023 0.021816703 -0.112015136
0.07661408 -0.024887893 0.051490515 0.1975219 -0.04750027 0.0404532 -0.021871526 -0.062313057
0.0508875 -0.029494353 -0.103415646 0.15529151 0.47888386 0.0060177487 0.060748003 0.20359613
0.01502469 0.00944394 0.15940039 -0.009566646 0.0757989 -0.26196435 -0.051440045 -0.055164054
-0.13305809 0.16073075 -0.036638293 -0.007240501 0.15164894 -0.17282724 -0.060109947 -0.09464918
-0.09243789 -0.06626621 -0.032553397 0.13668162 0.077199385 0.052022234 0.16014636 0.010712451
-0.032440674 0.056156024 -0.13279533 -0.074632145 -0.1093896 -0.0640889 0.00388982 0.011008988
0.1810966 -0.0919731 -0.012584506 -0.35018927 -0.020541787 0.041213192 -0.1498623 0.07519466
-0.0820909 -0.41547227 -0.054265726 0.037077993 -0.062335916 0.0036082605 0.05973056 -0.012228392
-0.088976584 -0.14378491 0.073565416 -0.04644893 0.01767884 0.10884055 0.090721995 -0.16236623
-0.006229899 -0.081189476 -0.033935092 -0.043942012 -0.07635945 0.055015065 -0.27110878 0.112779066
-0.002030466 0.02417246 0.008791226 -0.037935387 0.005076187 0.11857275 0.049296066 0.08332615
0.008387419 -0.01864785 0.052445643 0.1988001 -0.033085782 0.027246576 0.080160245 -0.028594155
0.057354134 -0.07718161 -0.036040593 -0.25744513 -0.30632195 0.015652664 0.07127049 0.18138714
-0.024833204 0.121672 -0.027743595 -0.072262324 -0.11667131 -0.023463586 0.061122626 0.052751563
-0.13572778 0.043743204 -0.04161996 -0.2006389 -0.105327316 0.16666931 -0.005826946 0.15303777
0.07297375 -0.033718493 0.028218724 0.04013867 0.05303048 -0.053914007 -0.06610328 0.075236395
0.002341516 0.12851697 0.12741907 0.03333061 0.055530183 0.03286767 0.12691554 -0.123228036
-0.10702492 -0.1823002 -0.105123386 -0.02884289 0.021856379 0.10698937 0.13208453 0.11587293
0.0058849766 0.0684407 -0.01744764 -0.08633596 -0.026497716 0.11677679 0.15040097 -0.06321421
-0.027614253 -0.10924782 0.024982853 0.14587238 0.17148519 -0.007532564 -0.08703213 0.09805575
0.03177604 0.10252252 0.015780782 -0.003991731 -0.0792808 -0.03497901 0.02737475 0.067190655
0.085124 0.096542805 -0.082574755 0.054407515 0.11757593 0.20086266 -0.05180221 -0.039031938
-0.07620522 -0.03802116 -0.047115546 -0.040697336 0.1403177 -0.056214277 0.17707242 0.15865259

lstm.lstm.weight_ih_l1 f4 [352, 88]
00000000: 8788 0cbe 90e4 edbd 62a8 83bd 3a5d 77bd
00000010: 2272 ba3d f3e5 da3a 7ee5 ba3d aebd 3a3e
00000020: a454 c13d a4ca d73c 4fe1 0cbe 0fd2 75bc
00000030: a51a 353c 59e4 ed3d 392e c2bd 4a88 0b3e
00000040: 38a4 383e 52dd aa3d 316f 8e3d 1019 d93c
00000050: afcf 053d 1427 95bd b115 b2bd b3dd 00bd
00000060: 12be e13b 3028 35bd 6a76 683d a206 75bc
00000070: 619e b83c 5e50 1e3a 6f3d febc 995b 06bd
00000080: 90d6 8dbd 9bb3 85bc d630 87bd 5aed b3bd
00000090: 3116 d2bd 6461 e83d 5efe 043d afc5 eb3d
000000a0: f02c 83bb b592 32be e1b4 c13d 7a8b a9bd
000000b0: 7891 d03d bf84 323d 74e7 f1bd 40b8 503e
000000c0: 458e c6bd 7833 31be 6ae8 e2bc e3f0 e63c
000000d0: f27b 1cbd b543 153b f284 c53b 64ac 183e
000000e0: ee39 293d 56b2 693d 0c0b 5a3d a8b5 d0bd
000000f0: 18fa dd3c c02e 7e3d a467 ffbc a9dc a03d
00000100: 3c79 a1bd b18a 35bc e7f0 c33d 68c8 5dbc
00000110: 8ab1 a13d 33cc efbb 6b0a 34bd 5734 af3d
00000120: 6d3d e73c f37c c83d 6115 363d b38a eb3a
00000130: 4da5 713d c94d 113d 7bba f9bc e4c4 04bd
00000140: 03fc bf3b 3d62 2d3d 199c b6bd 1d69 32be
00000150: c66c 93be d140 d2bc 5d55 033e 6c07 e13b
00000160: 1625 ebbe 6d03 54be 75d3 483d ed25 20be
00000170: 6899 1a3e b7ef edbe 812e a53d 5074 1b3c
00000180: 0983 29bc cdd3 b83d c13e 35bd 8ad4 8a3d
00000190: db47 0f3e 6ea7 6c3e 17dd b93b 9632 a03e
000001a0: 8896 ee3e 1184 6c3e 1d2c 733e 1796 5b3e
000001b0: b84a ff3d 7fd9 9a3c 92fd d1bc 02c8 56bd
000001c0: c2ac 193e e43f 67bb 9fb7 3b3c d5f4 22bd
000001d0: da04 1c3f 671c afbe 64df 193e 97f0 bfbe
000001e0: 85e1 89bd 57d7 84bd 21a4 6dbd 0cc8 1fbe
000001f0: 3a28 35be fd6c 4d3e 893d 143e ac75 263e
00000200: 212e 94be e4e6 78bd 2067 c93a 5135 863d
00000210: ec0d 6e3e 4c86 023d 9feb 80be 8046 4e3e
00000220: 6fad 29be a529 8abe 61d4 cfbd 4788 363d
00000230: fdc7 b5bd 87e4 a7bd 5b94 15be 503d f83e
00000240: 11f7 c5bd 7be6 46be ad74 d93c 7026 e0bd
00000250: 3ef1 bebe 3a47 823e 6883 46bd c7bf 6bbd
00000260: 1ae7 6abe eb13 78be b3b3 c53d be18 cf3e
00000270: a028 1f3e 61cd 4c3d 5724 44bc 844d 22be
00000280: 0fa4 113e b270 22bd d34b 5cbe 5b26 c83d
00000290: 2af4 13bd 113b 82bc 715c 3b3d 7d50 ef3c
000002a0: 2bd0 dd3d 4fc1 3fbb 5463 67bd e604 30be
000002b0: 5873 51be bf12 d13e 8d40 fa3d 7fa0 37be
000002c0: 1cc4 fcbb b2af 3a3b cac6 f9ba aa6f c33d
000002d0: 9829 97bc 73ed bf3d 4296 02bd efe8 033e
000002e0: ef3e 673d 65fe f7bd fbe1 a03c d1a0 2c3c
000002f0: 9953 83bd 2beb d2bd d2cc 983d f6cd 613d
00000300: 689d 5ebc bcb4 ad3d fae2 053d 5f91 85bd
00000310: a6a4 c03d 44d2 2dbd e010 1a3d 07f4 8abd
00000320: 8806 62bb 1786 563d 463d 083e f165 6dbd
00000330: 6e6c b7bd d03b 563c b714 d13c 3a5a 05bd
00000340: 109d 15bd 03ec e7bd b6f2 debd d912 0e3d
00000350: 9a05 1b3c 6694 8e3d aec7 163c 05ae 83bd
00000360: dc2f 073e 4bb2 6b3c 7625 97bd 45bf 42bd
00000370: 4554 703d 9e59 e43d d238 843d 0a50 7ebd
00000380: 9745 aebd 7c9b e13d 9c7b 40bd 57a7 90bd
00000390: fa86 69bd ad91 ae3d 704b 48be 8c72 413d
000003a0: 7835 913d fc64 1bbc 0e79 c83d d624 9a3d
000003b0: 7fb8 3c3d 3c1c a13c 1b30 b9bc 1eda 43bd
000003c0: 7bac a7bd ab25 89bd 3da7 c3bd 38db ecbc
000003d0: b989 15bd 29d8 aa3d 172a 10bb 0942 18bd
000003e0: 78f8 76bd 1212 38bd 899b 803c 2747 d1bd
000003f0: baad 0c3d c554 aabd 78cf e8bc b6e3 b53c
-0.13723956 -0.116158605 -0.06428601 -0.060391642 0.091038 0.001670061 0.091258034 0.1823642
0.09439972 0.026341744 -0.13757823 -0.015003695 0.011053716 0.116158195 -0.094814725 0.13626209
0.18031394 0.08342995 0.06954802 0.026501209 0.032668766 -0.07282844 -0.086955436 -0.03146143
0.006889113 -0.04422778 0.056753553 -0.014955195 0.022536458 0.00060391973 -0.031035153 -0.032802198
-0.0692569 -0.016320994 -0.066011116 -0.087855056 -0.10258139 0.11346701 0.032469146 0.115123145
-0.0040031597 -0.17438777 0.09458328 -0.08278556 0.10183996 0.043583628 -0.11811724 0.20382786
-0.096951045 -0.1730479 -0.027698714 0.028191036 -0.03820414 0.0022775952 0.006027811 0.14909512
0.04131501 0.05705484 0.05323319 -0.10190898 0.027096793 0.062056303 -0.03117735 0.078545876
-0.07884452 -0.01108043 0.09567433 -0.01353655 0.07895191 -0.0073180436 -0.043955248 0.08554905
0.028227532 0.09789457 0.044453982 0.0017970413 0.058995534 0.035474572 -0.030484429 -0.032414332
0.0058588996 0.042330015 -0.08916492 -0.1742291 -0.28793925 -0.025665672 0.12825532 0.00686734
-0.45926732 -0.20704432 0.049029786 -0.15639468 0.15097582 -0.4647195 0.080655105 0.00948818
-0.010346183 0.09024773 -0.0442493 0.0677882 0.13992254 0.23110744 0.005672108 0.31288594
0.4659922 0.23097254 0.23747297 0.21443973 0.12465423 0.018902538 -0.025633607 -0.052436836
0.15007308 -0.0035285885 0.011457353 -0.03978427 0.609449 -0.34201357 0.15026623 -0.37488243
-0.067324676 -0.06486385 -0.058017854 -0.15603656 -0.17691126 0.20061107 0.14476599 0.16255826
-0.28941444 -0.06076707 0.0015365817 0.06553138 0.23247498 0.031866357 -0.25179765 0.20144081
-0.16570066 -0.26984897 -0.1014793 0.044563558 -0.08876035 -0.08197885 -0.14607374 0.48484278
-0.09666265 -0.19423859 0.026544893 -0.10944831 -0.37293428 0.25444967 -0.048465163 -0.05755594
-0.22939721 -0.24226348 0.096534155 0.40448564 0.15542841 0.050000552 -0.011971555 -0.15849882
0.1422274 -0.039658256 -0.215133 0.09772941 -0.036121525 -0.015897306 0.045742456 0.029213184
0.108307205 -0.0029259508 -0.05649121 -0.17189369 -0.20454156 0.40834615 0.12219343 -0.17932318
-0.0077138077 0.002848607 -0.0019056436 0.095427826 -0.01845245 0.09371462 -0.03188158 0.12881826
0.056456503 -0.12109069 0.019639006 0.0105363885 -0.06412429 -0.10298761 0.074609414 0.05512806
-0.013587333 0.08481738 0.032687165 -0.06521868 0.09406404 -0.042436853 0.03761375 -0.06784826
-0.0034488756 0.05237397 0.13304624 -0.057958547 -0.08956228 0.013075784 0.025522573 -0.03255675
-0.03652674 -0.113243125 -0.10886137 0.034685943 0.009461785 0.069618985 0.009202881 -0.06429676
0.1320185 0.01438577 -0.07380192 -0.04754569 0.058674116 0.111499056 0.0645615 -0.06208805
-0.08509367 0.110159844 -0.046992883 -0.070631675 -0.05701349 0.08523879 -0.19560027 0.04722838
0.070902765 -0.009484526 0.09788714 0.07526557 0.046074387 0.019666784 -0.022605946 -0.047815435
-0.08187195 -0.06696638 -0.095533825 -0.028913125 -0.036508296 0.083420105 -0.0021997744 -0.03717235
-0.060295552 -0.04493911 0.015699165 -0.10218649 0.034345366 -0.0831695 -0.028419241 0.022203308

lstm.lstm.weight_hh_l1 f4 [352, 88]
00000000: 13e9 1f3e b4a9 06be 9725 583d a86e d3bd
00000010: 89d5 7ebd 2c8e d3bd e50d c6bc a75f 12be
00000020: 4216 2abe 692a 243e 67f8 333d c18d c23d
00000030: 54c8 0ebe 6bd5 103e 9693 67bd 2a15 a03d
00000040: 8c7b 16be 10dd f9bd 16a2 41bc 136c 7e3d
00000050: 5c2b 81bd 33a7 9dbd 13c2 d23c fe2b 10be
00000060: 44c3 0fbe 3ff5 dc3d 94ad 983d 94fc 183e
00000070: 1679 d7bc 9a9d b4bc 676d f13d 1124 01bd
00000080: ee64 01bd d274 7cbc 0276 873d 6aa7 babd
00000090: 84c5 79be 1c04 ff3d 2de2 b8bd 0f73 54bc
000000a0: 9181 c63c b10f 34bd 95f6 c3bd 3d86 01bc
000000b0: ef57 1c3e f982 59bd 587c 513d 202d fe3c
000000c0: 7322 01bd 5d2d e8bd 9d6e 643d 2d3c 463d
000000d0: 7e29 b03c 15e2 eb3d 3050 b7bd 7cab 1ebe
000000e0: bc4d 60be 8c37 5c3e 7f21 50bd bc81 f03d
000000f0: b8da 94bd bfff 363c 1740 afbc 3235 953c
00000100: 7c6b 143b 4c8b ae3d 4e28 2dbe 5baa 41bc
00000110: 4868 24bd b5fa b13d 8e49 df3c 6d27 06be
00000120: 1b48 2c3c 77a8 d1bd c7c2 043d fbbb 52bb
00000130: 75b8 1abe 79bf d3bc 7551 0c3c d96d 53bd
00000140: 6f3f b1bd 7efa 78bc 40fb 83bd ee3f a7bb
00000150: 22d6 9a3d 9c81 efbb f87a b53d 91b9 0f3e
00000160: a28b eebd cd07 69be ed84 7cbd 2e6c df3d
00000170: fe95 37be b438 ab3d e5c3 9ebe 0062 8b3d
00000180: 8024 a5bd 4d5c 783e 92f1 01bc 1378 0d3d
00000190: 7ee1 613d df9d 073d 5229 f5bc 3235 6ebd
000001a0: 52b8 87be 7bfe 473d fe76 813d f36c 4abe
000001b0: 284d 15be 5c76 e13d 52eb cd3e 338e a0bc
000001c0: 8c00 db3c da88 4c3e 338a a93d c3e8 bc3c
000001d0: 5ec4 a5bd 5685 05be accd b33d 23d2 8cbd
000001e0: ae02 143d c1ce b63e 5cbf 1c3e d0b4 59bd
000001f0: 0425 e5be 2aac 4cbc 984a 49be 4909 91bc
00000200: b873 a2be 7c76 bcbd 2b3f e23d cf5d a3bc
00000210: a33d 3bbd 046d 12be d06e 7bbe 1b17 d63b
00000220: 2aa7 75bd d919 cbbd db73 ecbd 0aab 3c3d
00000230: 069e 75bd 28a9 623c d2ed 24bd 2d9c a63d
00000240: 79b7 36be f80e c23e c436 73be a4cd 643d
00000250: f840 51bd bbf8 303d 3d68 4abd 6696 cebd
00000260: 7dc0 2b3d ccd4 43be bc36 c7be 3009 673e
00000270: 2f94 0ebd 9a99 ac3e f938 3d3e a74b 0a3c
00000280: fc4f 473c 91d1 593d a6ec e4bd 47ac cf3c
00000290: a7a5 61bd 4bfc fe3d ee71 b0be d49a dbbd
000002a0: 5e9d 2fbe 1f3c f73d 5546 4f3e 3b55 cb3e
000002b0: 416b 10bd 629e 95bd a03f f5bd e3c8 483d
000002c0: d421 c5bc 0eef 96bd a677 8ebc 9672 213d
000002d0: 7858 4a3c f3fc b0bc 3acc d1bd df5c 0cbd
000002e0: e13b adbc 5bd3 223d 58ed 87bd 3e88 0abe
000002f0: 133d 0c3e 8606 26bd 473a fbbd 5521 ddbd
00000300: ddae dbbd 03c6 0c3e 88c7 f2bd 87e1 a83d
00000310: 45f5 943d 3f37 b6bc 46d1 5bbd f58d 0b3b
00000320: 580c 823c f801 073c ae99 1c3b c77c f4bd
00000330: cc3e 3a3d cfb5 81bc 6368 a1bd 15bc 0abd
00000340: fa29 983d 61d2 053e f892 de3d d25a 973d
00000350: a730 cbbd e22f a0bd 3aba a03d 2ad4 db39
00000360: b3b6 77bd b46c bb3d f5c4 e93d 606a 103e
00000370: 7683 edbb 5681 0c3e 7ce8 b8bd 1758 01bd
00000380: 48cf 81bc 6265 23bd a928 063e 225e 8d3d
00000390: fa74 c7bd 2bf7 9b3c f6eb e33d 6fbc a0bc
000003a0: 9962 1f3c f386 ee3b f1b9 19bd 60d5 8cba
000003b0: d611 85bb ae51 223c d618 033c d8c7 73bd
000003c0: 0abb bb3d 1a00 edbc d21a 913d e131 663d
000003d0: 4764 853d 81ba 1c3e c716 043a feee 0b3d
000003e0: d2da 5abd dc2f 78bc edf3 f1bb 8f58 d53b
000003f0: 5cba 24bd 8520 adbd 2991 b13d 6a56 f6bd
0.15616255 -0.13150674 0.052770223 -0.103238404 -0.06221536 -0.103298515 -0.024176547 -0.14294301
-0.16610053 0.16031803 0.043938067 0.09499694 -0.13943607 0.14143912 -0.056537233 0.07816537
-0.14695567 -0.122003675 -0.011818429 0.062114786 -0.06307098 -0.07697906 0.025727307 -0.14079282
-0.14039332 0.107889645 0.074549824 0.14940101 -0.026302855 -0.022047807 0.11788445 -0.031528536
-0.031590395 -0.0154087115 0.06614305 -0.09113963 -0.24391752 0.12451956 -0.090275146 -0.012966885
0.024231704 -0.043960277 -0.09568516 -0.00790554 0.15267919 -0.05310342 0.051143974 0.031027377
-0.031526994 -0.11336777 0.05576955 0.04839723 0.02150416 0.11517731 -0.089508414 -0.15495104
-0.21904653 0.21505564 -0.050813194 0.11743495 -0.0726828 0.011169373 -0.021392865 0.018213842
0.0022647073 0.085226625 -0.16909906 -0.011820401 -0.040138513 0.08690397 0.027256753 -0.13100977
0.010515238 -0.1023721 0.032412317 -0.0032155502 -0.15109427 -0.025848137 0.008564343 -0.05161843
-0.08654677 -0.015196441 -0.064444065 -0.0051040566 0.07560374 -0.007309152 0.08861345 0.14035632
-0.116477266 -0.22756882 -0.061650205 0.109093055 -0.17928311 0.08360425 -0.3100883 0.068058014
-0.080636024 0.2425396 -0.00793113 0.03453834 0.055146687 0.033109542 -0.02992693 -0.0581562
-0.26507813 0.048826676 0.06321524 -0.19768123 -0.14580214 0.110089034 0.40218598 -0.019599056
0.02673366 0.1997408 0.082783125 0.023060208 -0.08094095 -0.13039145 0.08779463 -0.06876018
0.036135368 0.35704616 0.15307373 -0.05315095 -0.44754803 -0.012492219 -0.19657362 -0.017704623
-0.3172891 -0.092022866 0.110472046 -0.019942192 -0.04571308 -0.14299399 -0.2455399 0.006533516
-0.059973873 -0.099170394 -0.11545535 0.046061553 -0.059965156 0.013834275 -0.040265866 0.08135257
-0.17843427 0.37902045 -0.2375136 0.055860177 -0.05108735 0.043205958 -0.049415816 -0.1008728
0.041931618 -0.19124144 -0.38908947 0.22562099 -0.034809288 0.3371094 0.18478765 0.0084408885
0.012165066 0.053178374 -0.111779496 0.025350703 -0.05508962 0.12450465 -0.3446192 -0.107228905
-0.17149875 0.12072014 0.20241673 0.39713463 -0.035258535 -0.073056 -0.11975026 0.049019706
-0.024063982 -0.07369815 -0.017391037 0.03941592 0.012350194 -0.02160499 -0.10244031 -0.034268256
-0.021146717 0.039752346 -0.066370666 -0.13528535 0.13695173 -0.040533565 -0.12266975 -0.10797373
-0.10726712 0.1374741 -0.11854464 0.08246141 0.07273344 -0.02224314 -0.053666376 0.002129433
0.015875027 0.0082402155 0.0023895311 -0.11937862 0.045470044 -0.015833763 -0.07881238 -0.033870775
0.074298814 0.13068534 0.10867876 0.073903695 -0.09921389 -0.07821633 0.0784802 0.0004192901
-0.06047697 0.09151593 0.1141452 0.14103079 -0.0072483374 0.13721213 -0.09028718 -0.03157815
-0.01584591 -0.039891608 0.13101448 0.0690272 -0.097391084 0.019038757 0.1112899 -0.019621102
0.009728097 0.007279271 -0.037530843 -0.0010744743 -0.004060964 0.009907169 0.008001527 -0.059516758
0.09166534 -0.028930712 0.07085194 0.056199912 0.06513267 0.1530552 0.00050387945 0.034163468
-0.05343134 -0.015148129 -0.0073838145 0.006510801 -0.04021679 -0.08453468 0.08670265 -0.12028201

lstm.lstm.bias_ih_l1 f4 [352]
00000000: e74d 253d 333d 19bc 33c7 443d 2a16 5b3d
00000010: 198a 6c3d a16d aebd 79e0 f2bd 2fe2 ad3d
00000020: 814b 71ba 3959 ae3d 90f0 6e3d d515 91bd
00000030: 1b2c 333d b438 1e3d f9f8 1f3d a40d 57bd
00000040: 710c a3bd b983 7cbd a214 643d 1c92 a2bd
00000050: 482c 8a3c e885 8cbd 877f 063e f4b1 b43d
00000060: 3d84 23bd 5ee5 043e baac 893c 8275 9e3d
00000070: 8375 f23d 8a67 dd3d e740 efbc c1d4 b2bd
00000080: 54c4 cebc ca29 fabd 4a9d 84bd 4adc 44bd
00000090: c9db 843d fb8a ef3d 1ea7 723d 2034 c93d
000000a0: 5b78 e0bd b8fc 84bd 89c9 81bd 2d2c 553d
000000b0: 4b6f b33d 2dc1 c03d 2cde 9bbd f934 6c3d
000000c0: 226c 81bd 1738 8a3d ad18 f2bd 2262 153d
000000d0: dda6 b73d 743b 55bc ea45 bd3d 205c 623d
000000e0: 3aa0 d2bd 656a 4d3b 2675 d03b 84cf 8e3d
000000f0: 2499 cfbc ac86 ef3d a3e2 07bb 770d 7cbc
00000100: 9666 32be 2b7c 0c3e c52f 89bd 368f d5bd
00000110: 6635 3cbd 1707 4e3e 411a 1fbd cc56 c83d
00000120: 9fd3 633c 692c f8bd 1f44 f63c 68b8 a43d
00000130: 7726 963c 0052 9ebd aea7 883d 7e43 46ba
00000140: b1e9 cabd ccc2 4ebd 17fa 013a f4f5 4f3d
00000150: 513d fcbc c4e4 b03d 6385 323d ef51 91bc
00000160: e227 57bc 4ce2 203d ac6d 983c 28f3 20bb
00000170: f93f a9bd 1961 1d3e 7958 68bd 9485 f13c
00000180: f7a3 073c 3a2b 0cbe 4e4c 3dbd fd54 a33c
00000190: 20ea fdbc 7505 923a fe34 35bd ec53 a43d
000001a0: b872 08bd 54f8 1c3d a380 a83c 78f7 6cbd
000001b0: 43fe 98bd 6a97 ba3d 8e01 0fbe be7d 65bd
000001c0: 71d5 953a 32dc 973c a84c fd3d 3a33 a63d
000001d0: a82c 9c3c 4309 bebc b2b9 84bd e487 b2bd
000001e0: ebb6 acbd 214e 82bd 6515 383b 8f55 13bc
000001f0: 28b5 e1bd 59cd f73c f0d1 3fbd 4bb1 013d
00000200: 10dd 2b3b a09b 4bbd f19e debd 4d15 fa3d
00000210: f971 4dbd b3a1 bf3d 3c85 e33c da6e 293d
00000220: c288 f2bb f508 9a3d 8e5c 973d d9fe e9bd
00000230: 6831 053e a349 f73d 1c2f f63d 61f1 c33d
00000240: 8716 8dbd e75c 06be a87d 823d 203a a83d
00000250: d9cf 76bd 70ee c13d be01 6dbd 1ddc b93d
00000260: 8a10 913c e4ff b8bc 6358 b2bd a804 88bc
00000270: fcb3 153d 0559 0fbe 09af c33d 0692 853d
00000280: 0586 e3bd 70d1 89bd 09af b53d f4d3 fc3d
00000290: 9509 0c3e 4a88 ec3b 70fc e83b b460 5bbc
000002a0: d305 09be 018e e53c 04e2 6bbd 8189 0bbd
000002b0: 0270 8dbd ff91 393d 2c40 d1bc 427c 633d
000002c0: 0a34 d2bd 9a7a f4bb ab9d 6b3d dea6 3c3d
000002d0: d058 433d 399a 953d 7d7b a8bb ffc6 2e3c
000002e0: 3d3b 843d c2ef 29bd 0ed6 0fbc f239 da3d
000002f0: b430 82bd bd46 b83c db41 88bc b6a5 f63d
00000300: 0350 9ebd a125 d63d f3c8 09bd 5120 d23c
00000310: e1c1 623b b053 0abd ea44 88bd 54fc 873c
00000320: a6b9 c8bc 1754 82bd 074b d23d a789 643d
00000330: 76be fbbd 1037 fa3a 2a5c 76bd 8bbf ab3d
00000340: c599 2e3d c81f 7a3d 2bc3 823d efe5 893c
00000350: 20b0 873c b783 97bd 1421 613b 90a5 a4bd
00000360: 1ae3 5a3d 4a07 6d3d 3916 efbc 8042 adbd
00000370: c86c 96bd 7464 d23d 7a5c 46bd 6a84 283d
00000380: 4465 bb3b 4352 f63d 128d 0b3d 1fb0 9f3d
00000390: 1526 e0bb 099f 1b3b 5fd2 943d e1e0 59bd
000003a0: 72a3 343c d979 093b 7f47 c83d 983a 96bd
000003b0: 2e96 333d b33c 76bd 9664 903d 5e36 00bd
000003c0: 1edc b23c d5e5 f4bc 266e c9bd d7da 45bd
000003d0: be22 e03d bd49 8bbb 80b2 c8bc 3f9a e93d
000003e0: 92eb ac3c 8da5 bdbc d7c6 f1bc ff28 6a3d
000003f0: 2156 cc3d f104 6f3d 18f9 e53d 7cf1 4a3d
0.040357497 -0.00935297 0.048041534 0.053487934 0.057748888 -0.08517004 -0.11859221 0.08490407
-0.00092046714 0.085131116 0.058334887 -0.07084242 0.043743234 0.038628295 0.0390558 -0.052503243
-0.079613574 -0.061649058 0.05568374 -0.079380244 0.016866818 -0.06861478 0.13134585 0.08823004
-0.039921034 0.12978122 0.016805995 0.077372566 0.1183882 0.10810764 -0.029205753 -0.08731986
-0.0252401 -0.12215002 -0.06475313 -0.048061647 0.06487233 0.1169643 0.059241407 0.09824395
-0.10960456 -0.06493515 -0.06337268 0.052044082 0.08761462 0.09411845 -0.07610735 0.057667706
-0.06319453 0.067489795 -0.11821113 0.03647054 0.089673735 -0.013014663 0.09241851 0.05526364
-0.10284467 0.0031343934 0.0063616214 0.06973174 -0.025341578 0.116956085 -0.0020734451 -0.01538407
-0.17421946 0.13719241 -0.066985644 -0.10427706 -0.045949362 0.20119892 -0.038843397 0.0978218
0.013905435 -0.121178456 0.03006178 0.08042985 0.018328888 -0.07730484 0.06672607 -0.00075631577
-0.09907854 -0.05047874 0.0004958226 0.05077167 -0.030790957 0.086373836 0.04358424 -0.017739264
-0.013132067 0.039278314 0.018606983 -0.0024558995 -0.08264155 0.15369071 -0.056725 0.02948264
0.008278838 -0.13688365 -0.046215348 0.019937987 -0.030995429 0.0011140542 -0.04423999 0.08023819
-0.03331253 0.03832276 0.020569151 -0.057853192 -0.074703716 0.09110911 -0.13965437 -0.05602812
0.0011431408 0.018537614 0.12368137 0.081152394 0.019064263 -0.023197776 -0.06480731 -0.08717325
-0.08433326 -0.06362558 0.0028088924 -0.008992567 -0.11020881 0.030249285 -0.04683107 0.03166322
0.0026224293 -0.049708962 -0.108701594 0.12211094 -0.05015752 0.093570136 0.027773492 0.041365482
-0.0074015567 0.0752124 0.073907 -0.114255615 0.13007128 0.12074592 0.12020704 0.09567524
-0.068890624 -0.13121377 0.06371623 0.082142115 -0.060256813 0.094693065 -0.05786299 0.090751864
0.017708082 -0.022582956 -0.08708265 -0.016603783 0.0365486 -0.13998802 0.0955487 0.065219924
-0.111095466 -0.067294 0.08871276 0.12345114 0.1367553 0.0072183954 0.007110171 -0.013389755
-0.13381128 0.028021814 -0.057588592 -0.03406668 -0.069061294 0.04530525 -0.025543295 0.055538423
-0.10263832 -0.0074609043 0.05752341 0.046057574 0.04769212 0.07304806 -0.005141674 0.010667562
0.06456611 -0.041488416 -0.008779062 0.106555834 -0.06356946 0.022494668 -0.016632965 0.120433256
-0.07730105 0.10456396 -0.033638906 0.025650175 0.0034600424 -0.033771217 -0.06653769 0.016599812
-0.024502587 -0.06363695 0.102682166 0.055795338 -0.12292187 0.0019089896 -0.06014649 0.08386143
0.042627115 0.061065465 0.063848816 0.016833274 0.016563475 -0.073981695 0.0034351991 -0.08039391
0.053439237 0.05786828 -0.029185401 -0.084599495 -0.07344967 0.10273066 -0.048428036 0.041141905
0.005718859 0.12027409 0.034070082 0.07797264 -0.006840477 0.0023745915 0.072666876 -0.053192977
0.0110252965 0.0020977168 0.09779262 -0.073353946 0.043844394 -0.06011648 0.07050435 -0.03130185
0.021833476 -0.029894749 -0.09835462 -0.048304405 0.109441265 -0.0042507336 -0.024499178 0.11406373
0.021108422 -0.02315023 -0.02951376 0.057168003 0.09977365 0.058354322 0.112291515 0.049546704

lstm.lstm.bias_hh_l1 f4 [352]
00000000: 6fac c8bc 788a 1bbd 6a1e c8bc 89b8 053e
00000010: 5c2f 60bd ae30 453d 1acf 54bc a19c 203d
00000020: 251a 92bd f0b1 9cbc c130 823d bb90 f9bd
00000030: b143 433d d04d 20bd da2f 03bb 126a 29bd
00000040: a820 80bd cdb4 563d c418 173d e0cc 9a3d
00000050: ddde e3bd 71ed 0fbe b919 1f3e 3c6a bd3d
00000060: 14a8 be3b 7b5d 3d3d 5b16 dc3d 739a 573d
00000070: 03be e63d 7c7e 8cbd 01d7 5ebd e40d debb
00000080: 6a5d c2bd 38c8 aabd ecb0 0ebd aafc 00be
00000090: c3e1 823d abd3 fb3d d54b a03d 505b ebbc
000000a0: c238 1e3d 90c6 84bd 3a0c c7bc d76a 023e
000000b0: 83d9 ed3d 5fee f2bc e141 0bbe 9e0f 90bc
000000c0: 34af 7b3c cbe8 f23a 189d 2ebd 0d14 0cbe
000000d0: a0a3 713c 3dea babc fb97 33bd 03c0 e0bc
000000e0: 7fbf 93bc 8179 a7bc a46e 1fbe fc74 e43d
000000f0: caaa a53d ec5d 053d 82a6 253d bd8b 2e3d
00000100: abcb f4bc 8fd7 153d a94c f1bd 571e 7a3d
00000110: 67ed cf3d f45b 6a3d 1dad 3e3d df4b a63c
00000120: 6b25 83bc 50f4 0abe af3a f63c 3c94 d53d
00000130: b016 fe3d 32e4 90bd eb77 22bc 5828 c43d
00000140: e2a3 c2ba 853f 0a3e d23a b8bd 685a 1b3e
00000150: 2037 76bd 0286 273d 3584 703c d8df f63d
00000160: eb3a f2bd ad70 8a3c 982b cc3d 3d66 37bc
00000170: 73d2 233d 66f5 1e3d 3034 04be fc6f 23bd
00000180: 40ab 2f3d 5474 143c 3556 a63c 6be9 8a3d
00000190: 1612 e13d 1f03 8f3d 69f5 753d 7a80 713b
000001a0: 3751 abbd 8429 36bd 1a05 d93d 283d 613d
000001b0: 48d6 813c a0e8 4cbd 4a5c 953c 2253 bc3d
000001c0: 5c72 a73d f75f 163d 018b 6e3d 96fb 483c
000001d0: 7f93 033e b7b5 74bd 271d bebc ec47 873d
000001e0: e511 8dbc 0ba4 cc3c 4920 22be 2694 f5bd
000001f0: 0104 18be 6cac ce3d 22b5 35bd 9ce5 b33d
00000200: 27c0 c4bd 1e39 a73b 876a 053d a471 6f3d
00000210: 29c6 843d 4b17 49bd 0b7c 1cbe 2c9a 043e
00000220: deb9 1a3e a98e c53d c225 4bbd 46db 423d
00000230: 8b7a 023e f999 92bd 915f 38bd 5b03 20bd
00000240: eff5 86bd d321 bf3b 003c c0bd f98b b53d
00000250: 6b06 0d3e b0e3 65bd 712f ea3c e916 3d3d
00000260: 2255 0dbe 85f4 4fbc d894 eabc 1d09 ce3c
00000270: 87ff 163d 7541 0bbe e17d af3d 24b5 8c3d
00000280: e8dd bfbd da6c 94bd cb21 b4bb dfec 013b
00000290: f329 8cbd 47e1 cfbc 5b33 f6bc 0f9e c43d
000002a0: 331b f2bd 6776 b23d 3137 8dbd f4e7 b93d
000002b0: 9002 4fbd bdac 073e 3c91 0dbd 2c4e b93d
000002c0: 9d07 4a3d 16d6 66bd d7fc 5bba 0717 663c
000002d0: 05f5 25bc caf7 7a3d 9de9 563d a700 8abc
000002e0: 1454 4dbd 3dea 98bd 3027 143c b320 6abd
000002f0: ec24 ca3d ac50 ebbd 8d27 0fbd 4037 a43d
00000300: ad30 53bd 7d0a a13d 9d31 553a 81a9 a53d
00000310: 086d 253d 2833 a83d 24d9 cb3d e718 cebc
00000320: 165c 733d fa8b 92bd ce76 ee3d 8ae0 97bc
00000330: 7e54 e73c 6d16 a3bd 6d95 fcbd d304 9dbd
00000340: 7948 7ebd 6164 89ba 2a85 093c 3ca1 d03d
00000350: 86c7 28bd 6ff7 353d 9080 f3bd 3cc0 dfbd
00000360: 04ec b43d 4af2 8e3d eac8 57bc 8a4f c73d
00000370: 9ff3 ffbd ca37 673d 8b3c aabd e936 d6bd
00000380: 3f6e d53c 7b17 dd3d e2ec 093d ddd3 9a3d
00000390: 375f 3a3b 085c 4ebd f327 8e3d 2e52 a53c
000003a0: 72c8 cabd 29f6 aa3c 1ee9 64bd b118 c2bd
000003b0: cedb 80bd c277 b3bb 0446 fe3d b7d0 05be
000003c0: ff98 55bd 329c fdbd fc17 01bd e808 25bc
000003d0: 54e4 4b3d e052 eabd e43b fd3c b769 d93c
000003e0: a341 623d 5346 f0bc b76e d63d b8a2 6d3c
000003f0: 0a06 26bd 1f97 62bc eda7 543b 656f d4bd
-0.024496285 -0.03797385 -0.024428565 0.13058676 -0.054732665 0.048142128 -0.01298883 0.039211873
-0.07133893 -0.019127816 0.06356955 -0.12185808 0.047671977 -0.039136708 -0.0020017535 -0.041360922
-0.06256229 0.05241852 0.036888853 0.07558608 -0.11126492 -0.1405542 0.15537156 0.09248778
0.0058183763 0.046231728 0.107464515 0.05263753 0.112667106 -0.068600625 -0.054404262 -0.0067765582
-0.094904736 -0.0833897 -0.034836695 -0.12596384 0.06390717 0.12296232 0.07826964 -0.028730065
0.038628347 -0.06483185 -0.024297822 0.12736069 0.11613753 -0.02965468 -0.1359935 -0.017585572
0.015361596 0.0018532512 -0.042630285 -0.13679524 0.014748484 -0.022816772 -0.04384611 -0.027435308
-0.018035648 -0.02044368 -0.1556955 0.111551255 0.08089216 0.032560274 0.040441997 0.042613734
-0.029882273 0.036582526 -0.117822 0.06106409 0.10152703 0.0572166 0.046551812 0.02029985
-0.016009053 -0.1356976 0.03005728 0.10428664 0.12406671 -0.07074775 -0.009916286 0.095780075
-0.0014849866 0.13500793 -0.08995594 0.15171206 -0.060111165 0.040899284 0.014679958 0.120544136
-0.11827644 0.016899431 0.09969252 -0.011193809 0.039995622 0.03880825 -0.12910533 -0.03990172
0.042887926 0.009060938 0.020304779 0.06782802 0.10989778 0.06983017 0.060048494 0.003685026
-0.083651 -0.044473186 0.10596676 0.054989964 0.015849248 -0.050026536 0.018232483 0.09195544
0.08176109 0.036712613 0.058238033 0.012267014 0.12849234 -0.05974361 -0.02320726 0.06605515
-0.017220447 0.024980566 -0.15832628 -0.11991148 -0.14845277 0.100914806 -0.044362195 0.08784029
-0.09606963 0.0051032444 0.032572296 0.058457986 0.064831086 -0.04909448 -0.15281694 0.12949437
0.15109965 0.09646351 -0.049596556 0.047572397 0.12742059 -0.07158274 -0.045013014 -0.0390657
-0.06589877 0.0058328896 -0.09386444 0.08864588 0.1377198 -0.056125343 0.028587075 0.046164427
-0.13802007 -0.012692575 -0.028635427 0.02515083 0.036864784 -0.13599189 0.08568931 0.06870487
-0.09368497 -0.07247324 -0.0054971925 0.0019825024 -0.06843939 -0.025375975 -0.030053785 0.0960046
-0.11821594 0.0871399 -0.068952926 0.09077445 -0.050539553 0.13249488 -0.034562334 0.09048113
0.049323667 -0.056356512 -0.0008391863 0.014043576 -0.010129218 0.061271466 0.052468885 -0.016846014
-0.05012901 -0.074665524 0.009042546 -0.05716009 0.098703235 -0.11489996 -0.034949828 0.080183506
-0.051560093 0.078633286 0.0008132698 0.08088971 0.040387183 0.08212882 0.09953526 -0.025158359
0.059413992 -0.07155605 0.11643754 -0.018539686 0.028238531 -0.07963262 -0.12333188 -0.07666936
-0.062080834 -0.0010482186 0.008393565 0.10187003 -0.041205905 0.044425424 -0.11889756 -0.10925338
0.08834079 0.06979807 -0.01317046 0.09731968 -0.12497639 0.05644969 -0.08312329 -0.10459692
0.026053546 0.10795494 0.033673175 0.07559941 0.00284381 -0.050380737 0.069412135 0.020180788
-0.09901513 0.020869331 -0.05588638 -0.09477366 -0.062919244 -0.0054769227 0.12415698 -0.130679
-0.05214786 -0.123833075 -0.031517014 -0.010072924 0.049778298 -0.114415884 0.030912347 0.026539667
0.055238377 -0.029330408 0.10470336 0.014504127 -0.040533103 -0.013829975 0.0032448724 -0.10372809
